test/step1.onnx (onnx, 335414 bytes, 30 tensors)

block2.downsample.weight f4 [16, 8, 1, 1]
0	0xbc475fdd	-0.012168852
1	0x3d0844dc	0.033268794
2	0x3df8e401	0.12152863
3	0x3db52034	0.08844033
4	0x3e3c4a52	0.18387726
5	0xbd4608e0	-0.048348308
6	0xbda12df7	-0.07870095
7	0x3b0dbf74	0.0021629008
8	0x3da34173	0.07971468
9	0x3da8a420	0.08234429
10	0x3e51d439	0.20491113
11	0xbdad1ad4	-0.08452383
12	0x3e33b885	0.17550857
13	0x3e273928	0.16330397
14	0xbd169953	-0.036767315
15	0x3e8cdbce	0.27511448
16	0x3dae03c4	0.08496812
17	0x3e189aed	0.1490285
18	0xbe0c1012	-0.13678005
19	0xbd81c4e0	-0.06336379
20	0x3e3ef144	0.18646723
21	0x3e4014af	0.1875789
22	0x3de39e30	0.11114156
23	0x3e929f98	0.28637385
24	0x3d675b3b	0.05648349
25	0x3dd30435	0.10303537
26	0x3df8272b	0.12116846
27	0x3cfeee2b	0.031119427
28	0x3da07dbd	0.07836483
29	0x3cc82f39	0.02443658
30	0x3d8b8c74	0.06813899
31	0x3e21a44f	0.15785335
32	0x3e475096	0.19464335
33	0x3d8af4ed	0.06784997
34	0x3e9d7c13	0.30758724
35	0xbe176457	-0.1478437
36	0x3de18756	0.110121414
37	0x3e17e198	0.14832151
38	0xbde64f6a	-0.11245616
39	0x3e7520cf	0.23938297
40	0x3e031936	0.12802586
41	0x3cfc9480	0.030832529
42	0x3c65a905	0.014017348
43	0x3d485253	0.048906635
44	0x3ea41f13	0.32054958
45	0x3b1b074c	0.0023655472
46	0x3ea6b08f	0.3255658
47	0x3d2154c8	0.039387494
48	0x3e1d178e	0.15341017
49	0x3d594965	0.05304851
50	0xbe633e42	-0.22191718
51	0x3d10bddc	0.035337314
52	0x3eb59237	0.35463116
53	0x3e6c0244	0.2304774
54	0x3da806e4	0.08204439
55	0x3de4a4bf	0.11164235
56	0x3d026e18	0.031843275
57	0xbd0f59bd	-0.03499769
58	0x3d599897	0.053124037
59	0xbdb31abb	-0.08745333
60	0x3e302def	0.17205022
61	0x3caea3d0	0.021318346
62	0xbd5b2e97	-0.05351123
63	0x3e362582	0.17787746
64	0x3e03a52b	0.12855975
65	0x3e3a6159	0.18201198
66	0xbdb6d148	-0.08926636
67	0x3d11ea17	0.035623636
68	0x3e857f16	0.2607352
69	0x3de63305	0.112402
70	0x3e8f92e0	0.28041744
71	0x3e459075	0.19293387
72	0x3e33b8eb	0.1755101
73	0x3d94090f	0.0722829
74	0xbd97dee9	-0.074155636
75	0x3d8dc7c5	0.06922869
76	0x3ddf748d	0.10910902
77	0x3ddbffce	0.1074215
78	0x3e89e251	0.26930478
79	0x3e16e29e	0.14734885
80	0x3e22c52b	0.15895526
81	0x3d2eadf2	0.042646356
82	0x3d80d5de	0.06290792
83	0x3c942a5b	0.018086603
84	0x3cde4a8b	0.027135154
85	0x3e090be6	0.13383445
86	0x3cb5e87d	0.022205586
87	0x3e13d85e	0.14438006
88	0x3ddf71a0	0.10910344
89	0x3da77cd9	0.0817811
90	0x3c82513e	0.01590788
91	0x3d1f3122	0.038865216
92	0x3e05c94e	0.13065073
93	0x3c12f029	0.008968391
94	0x3da0d1a7	0.07852488
95	0x3d9916f6	0.074750826
96	0x3e132fb8	0.14373672
97	0x3c934b29	0.017980175
98	0x3d83ebd3	0.06441464
99	0x3d7faeca	0.06242255
100	0x3d3d67e7	0.046241667
101	0xbc2e5d93	-0.010642427
102	0x3e4bc36b	0.19898765
103	0xbd7eda83	-0.062220108
104	0x3e5284ca	0.20558468
105	0x3e0c3c13	0.13694791
106	0x3d80d023	0.06289699
107	0xbd141554	-0.036153153
108	0x3e179dfb	0.14806359
109	0x3e49aac5	0.1969405
110	0x3c07abce	0.0082807075
111	0x3e2634cb	0.16231076
112	0xbd616742	-0.055030115
113	0x3d3e480c	0.046455428
114	0xbd28a6e0	-0.04117477
115	0xbe55c084	-0.2087422
116	0x3b4bc7d1	0.0031094442
117	0xbc9fce3c	-0.01950752
118	0x3e136428	0.14393675
119	0x3d4ccdca	0.050000943
120	0x3d919095	0.07107655
121	0x3d898ced	0.067163326
122	0x3e63a107	0.22229396
123	0x3d5007ee	0.050788812
124	0x3d04df02	0.03243924
125	0x3ce47823	0.027889317
126	0x3d27d220	0.040971875
127	0x3e083b91	0.13303973

block2.downsample.bias f4 [16]
0	0x3f47a001	0.7797852
1	0x3f04b9e1	0.5184613
2	0x3f099f64	0.53758836
3	0x3eb5e793	0.3552824
4	0x3f1110c8	0.5666623
5	0x3f0035a7	0.50081867
6	0x3eed8496	0.46390218
7	0x3ef8002b	0.48437628
8	0x3dbac69e	0.091199145
9	0x3e9905bb	0.29887185
10	0x3e7faa77	0.24967371
11	0x3f15a625	0.5845664
12	0x3f43241c	0.76226974
13	0x3f33695e	0.7008265
14	0x3e8f10fc	0.27942646
15	0x3f236e6e	0.6384038

block3.downsample.weight f4 [32, 16, 1, 1]
0	0x3d4bc30c	0.049746558
1	0x3da739f3	0.0816535
2	0x3c2c3942	0.010511698
3	0x3e0b3983	0.13596158
4	0xbd997e3a	-0.07494779
5	0x3e5eeeeb	0.21770827
6	0x3dd5ef07	0.104459815
7	0xbc329574	-0.01089989
8	0x3d902387	0.07038026
9	0x3e039e22	0.12853292
10	0x3da124b8	0.07868332
11	0x3d1a186c	0.037620947
12	0xbd5d4222	-0.054018147
13	0x3d86b86c	0.065781444
14	0x3c85dc1b	0.016340306
15	0x3d3f362e	0.04668253
16	0xbcce2cd6	-0.025167864
17	0xbc67e154	-0.0141528435
18	0xbe103ea8	-0.14086401
19	0xbc639711	-0.0138909975
20	0xbe0261d2	-0.12732628
21	0xbdae2e94	-0.08504978
22	0x3d4c485a	0.049873687
23	0x3e7dc05c	0.2478041
24	0xbe160b0e	-0.14652655
25	0xbc7ccb46	-0.015429324
26	0xbb0b95a1	-0.0021298903
27	0x3c4401b1	0.011963294
28	0xbccbc4dd	-0.024874145
29	0xbd0b9dc1	-0.034085993
30	0x3d748440	0.059696436
31	0x3da04515	0.07825676
32	0x3c88c52d	0.016695583
33	0x3c1d22e6	0.00959084
34	0x3d5408e1	0.05176628
35	0x3dc37420	0.095436335
36	0xbcef7487	-0.02923037
37	0xb888c1a9	-6.5210574e-05
38	0x3d303480	0.043018818
39	0x3e1aeeb9	0.15130128
40	0xbd9f294a	-0.07771547
41	0x3e264e4e	0.16240808
42	0x3bffcf2e	0.00780668
43	0x3d9c2532	0.07624282
44	0x3da4be29	0.08044083
45	0x3dcdfd63	0.10058095
46	0x3c01c7b3	0.007921147
47	0x3d478d04	0.048718467
48	0x3d3a78e5	0.04552545
49	0x3e188892	0.14895847
50	0x3d2f34a8	0.042774826
51	0xbde0b394	-0.10971752
52	0x3db81333	0.08988037
53	0x3e18c651	0.14919402
54	0x3e2544d5	0.16139539
55	0xbd085044	-0.033279672
56	0xbcd3519d	-0.025795752
57	0x3de6efee	0.11276232
58	0xbe024cda	-0.12724629
59	0xbde987e2	-0.11402871
60	0x3ce61d21	0.028090062
61	0xbce1a17a	-0.027542818
62	0xbd89bd8c	-0.06725606
63	0x3d972177	0.0737943
64	0x3dcc83fd	0.09986112
65	0xbd26bdd6	-0.040708385
66	0x3e020322	0.12696508
67	0xbd75d943	-0.06002165
68	0x3d9cafaf	0.076506965
69	0x3e120319	0.14258994
70	0x3dfe4897	0.12416189
71	0x3c9bcdf0	0.019019097
72	0xbcf687a2	-0.030093972
73	0x3db750d1	0.089509614
74	0x3d9165af	0.07099473
75	0x3d99132e	0.07474361
76	0x3da94961	0.08265949
77	0x3b925752	0.004465976
78	0xbc95725c	-0.018243007
79	0x3e41672c	0.18887013
80	0xbdd48359	-0.10376615
81	0x3e3000e5	0.17187841
82	0xbdb7f1d7	-0.08981674
83	0xbd1194b5	-0.03554221
84	0x3e4ab6f1	0.19796349
85	0xbd42e0db	-0.04757772
86	0x3e7d4685	0.24733932
87	0x3e79e0f7	0.24402224
88	0xbbf516f6	-0.007479544
89	0xbc8532da	-0.0162596
90	0x3deb2ffb	0.11483761
91	0x3d0fbe1d	0.035093416
92	0x3cb87005	0.022514353
93	0x3ce953e5	0.028482387
94	0x3cbed6e3	0.023295825
95	0xbda6dba1	-0.0814736
96	0x3db8dcc5	0.090264834
97	0x3c60905b	0.013706292
98	0x3e1c27df	0.15249585
99	0xbe078422	-0.13233998
100	0x3e0411d4	0.12897426
101	0x3e2d8aac	0.1694743
102	0xbc2d5410	-0.010579124
103	0xbab762e5	-0.0013991265
104	0x3cb6a04c	0.022293232
105	0xbd5fd03c	-0.054641947
106	0xbe21cef3	-0.15801601
107	0x3e329fb5	0.17443736
108	0xbd04ecc4	-0.03245236
109	0x3d121b46	0.03567054
110	0x3e1848ae	0.14871475
111	0xbd356379	-0.044284318
112	0xbdb5d4e7	-0.088784985
113	0x3c8057c5	0.015666852
114	0x3d556d92	0.052106448
115	0xbd9fa47d	-0.077950455
116	0x3e368453	0.17823915
117	0x3d2577f5	0.040397603
118	0x3dfd4b45	0.12367872
119	0x3dc1ff13	0.0947248
120	0x3dd996b2	0.10624446
121	0xbd1d94f4	-0.03847213
122	0x3d0c30e7	0.034226324
123	0xbb7740d8	-0.003772786
124	0x3dacd807	0.084396414
125	0x3de55aee	0.11198984
126	0x3d476302	0.048678406
127	0xbc72a5b4	-0.0148100145
128	0x3e6690ee	0.22516224
129	0x3ccc4159	0.024933504
130	0x3dd4fb5a	0.10399504
131	0x3e4958f5	0.1966284
132	0x3e1e2515	0.15443833
133	0xbe48ac64	-0.19597012
134	0xbd937b06	-0.07201199
135	0x3d8044c9	0.0626312
136	0x3db8f104	0.09030345
137	0x3c3d7526	0.011563575
138	0xbd80c2f5	-0.06287185
139	0xbd9459e8	-0.07243711
140	0xbd974067	-0.07385331
141	0xbcf58769	-0.029971795
142	0x3caf40e9	0.021393256
143	0x3d1ea5ba	0.038732268
144	0x3c3093b5	0.010777404
145	0x3d818953	0.06325021
146	0xbca56ab5	-0.020192483
147	0x3d2bec46	0.041973375
148	0x3dad9a3f	0.08476686
149	0x3d95ea34	0.07320061
150	0x3dde9f56	0.10870235
151	0x3db216bc	0.086957425
152	0x3dfab9ff	0.12242507
153	0x3ce31085	0.027717838
154	0xbd16a856	-0.03678163
155	0x3dd4ed52	0.10396828
156	0xbc417a70	-0.0118089765
157	0x3c63f204	0.0139126815
158	0x3ceb30dc	0.028709821
159	0xbd21de4e	-0.039518647
160	0x3dc13f39	0.09435887
161	0x3e2246c4	0.15847307
162	0xbdfaebfc	-0.12252042
163	0xbdb05b3a	-0.0861115
164	0xbe06629e	-0.13123557
165	0x3d7b6906	0.061379455
166	0x3d425d40	0.04745221
167	0x3dde7391	0.10861886
168	0xbd98a984	-0.074542075
169	0xbdc60af3	-0.09670057
170	0x3df93046	0.121674106
171	0xbb9939e2	-0.0046760896
172	0xbc8d201c	-0.017227225
173	0xbded268d	-0.115796186
174	0x3db21606	0.08695607
175	0x3e02fded	0.12792177
176	0x3a9df81b	0.0012052091
177	0x3d79d7bb	0.060996752
178	0x3d890e20	0.06692147
179	0x3d510be3	0.051036727
180	0x3e00ff7b	0.12597458
181	0xbdee6cc8	-0.11641842
182	0xbd877fb7	-0.066161565
183	0x3e30d9c6	0.17270574
184	0x3cb13942	0.021633748
185	0xbd2184ca	-0.03943328
186	0x3e3e892c	0.18607014
187	0xbc7fdacf	-0.015616133
188	0x3c6a6bc4	0.01430792
189	0x3e2f4ee2	0.17119935
190	0x3daf7e1e	0.08568977
191	0x3d9c77cd	0.07640038
192	0xbe138314	-0.14405471
193	0x3dbeb986	0.093127295
194	0x3dee4013	0.11633315
195	0x3daf6804	0.08564761
196	0x3cd4878e	0.025943544
197	0x3cbf0f12	0.023322616
198	0x3e6dbf2f	0.23217462
199	0xbe073441	-0.13203527
200	0x3e070f8a	0.13189521
201	0xbca84fb8	-0.020545825
202	0xbd1862f4	-0.037203744
203	0x3e4ace2c	0.19805211
204	0x3df9bb1d	0.12193892
205	0x3e3fffd2	0.18749931
206	0x3c8bcc94	0.017065324
207	0x3dd3d6cc	0.10343704
208	0xbbdf888d	-0.006821698
209	0x3d7e8242	0.062135942
210	0x3d37acee	0.044842653
211	0x3dd3e22e	0.10345875
212	0x3e159ef8	0.14611423
213	0x3d9f843d	0.07788894
214	0x3dc3cf6b	0.09561046
215	0xbd16091f	-0.036629792
216	0x3e3caf11	0.18426158
217	0x3d681c59	0.05666766
218	0xbdafc506	-0.08582501
219	0x3cf086b1	0.0293611
220	0xbcd6c504	-0.026216991
221	0xbac9810b	-0.0015373541
222	0x3d8ebfe5	0.06970195
223	0x3da5c4cd	0.080941774
224	0xbbaf6d75	-0.0053536245
225	0xbce42a16	-0.0278521
226	0x3db7b176	0.08969395
227	0xbd482ebf	-0.048872706
228	0x3e28d3a1	0.1648698
229	0x3d74000c	0.059570357
230	0x3c5e3e5d	0.013564673
231	0x3e0fa75d	0.14028688
232	0x3b473a28	0.0030399654
233	0xbcfbdac6	-0.030743968
234	0xbd5f5780	-0.054526806
235	0xbbe3b94f	-0.0069495807
236	0x3bd131fb	0.006384132
237	0x3bb8d347	0.0056404206
238	0x3d1e5c07	0.038661983
239	0x3cbf0d59	0.023321794
240	0x3dd237be	0.10264538
241	0x3e284042	0.16430762
242	0x3da6a61d	0.08137152
243	0xbdbc7ef6	-0.092039034
244	0x3cc226fc	0.02370023
245	0xbc9e0037	-0.019287212
246	0xbd1c2406	-0.038120292
247	0x3e2dc122	0.16968206
248	0xbd747764	-0.059684172
249	0xbc1fda9c	-0.00975671
250	0xbd4ef05c	-0.050522193
251	0x3e26c961	0.16287757
252	0x3cbbaecf	0.022910504
253	0x3cc69885	0.024242649
254	0xbd42df18	-0.04757604
255	0x3c264bf6	0.010149946

block3.downsample.bias f4 [32]
0	0xbe261120	-0.1621747
1	0x3e75123f	0.23932742
2	0xbcfe1855	-0.031017462
3	0x3ce71463	0.028207963
4	0x3e250337	0.16114508
5	0x3e781af4	0.24229032
6	0x3ee2de2a	0.44310123
7	0x3e230a17	0.15921818
8	0x3ea68521	0.32523444
9	0x3eb7893c	0.3584689
10	0x3a1e18e4	0.00060309307
11	0xbb85142d	-0.004061243
12	0xbe22ced3	-0.1589921
13	0xbdc2132e	-0.094763145
14	0x3f0cfc2f	0.550723
15	0x3ef13aba	0.47115117
16	0x3e16bc2d	0.14720221
17	0xbe4226bb	-0.18960087
18	0xbc24b5cd	-0.01005311
19	0x3f062273	0.52396315
20	0x3e56cb30	0.20975947
21	0xbda38dba	-0.079860166
22	0xbe2b8113	-0.16748457
23	0xbe4efbae	-0.20213196
24	0x3ed3fba6	0.4140293
25	0xbd55f4a0	-0.052235246
26	0x3eae9404	0.34097302
27	0x3d72e3dc	0.059299335
28	0xbe116857	-0.14199959
29	0x3e7f81bf	0.24951838
30	0xbd3fc993	-0.046823096
31	0x3c743723	0.014905724

block4.downsample.weight f4 [64, 32, 1, 1]
0	0x3dde0522	0.10840823
1	0xbda85281	-0.08218861
2	0xbd8b2419	-0.067939945
3	0xbdc8ecbd	-0.09810779
4	0x3dbbf4b8	0.09177536
5	0x3d6d8423	0.057987344
6	0x3e18abb7	0.14909254
7	0x3dc030d6	0.09384315
8	0x3d2ec713	0.04267032
9	0x3b275bd2	0.0025536907
10	0xbdd0b110	-0.10190022
11	0xbca8087e	-0.020511862
12	0xbdd524ed	-0.10407434
13	0xbd33a5c8	-0.043859273
14	0xbd873644	-0.06602147
15	0x3d466abf	0.048441645
16	0xbb5bc854	-0.0033536153
17	0x3aa21b1b	0.0012367697
18	0xbdaa6740	-0.083204746
19	0xbe1b738b	-0.15180795
20	0xbda14668	-0.07874757
21	0xbd95773e	-0.07298134
22	0x3e1c2c80	0.1525135
23	0x3dd6706b	0.10470661
24	0x3d980b9d	0.0742409
25	0x3dd70026	0.10498075
26	0x3dd2eaac	0.10298666
27	0xbc772084	-0.015083436
28	0x3dd6d88d	0.104905225
29	0xbda4d56e	-0.08048521
30	0xbdbb1d4c	-0.09136447
31	0x3d2cd21d	0.042192567
32	0x3d1cce86	0.038282894
33	0xbd174ae9	-0.036936674
34	0xbdce162c	-0.10062823
35	0xbd86055e	-0.065439925
36	0x3dd71b29	0.10503227
37	0xbd544089	-0.051819358
38	0xbdeb68d2	-0.11494602
39	0x3e396f92	0.18108967
40	0x3b424aa5	0.0029646542
41	0x3cdb2bed	0.026754344
42	0x3d8d0f72	0.068877116
43	0x3c6638ff	0.014051675
44	0x3d29201b	0.041290384
45	0x3dc3df52	0.09564079
46	0xbe07b5be	-0.13252923
47	0xbd418a8c	-0.04725127
48	0xbca95854	-0.020672001
49	0x3cc014a7	0.023447348
50	0x3e259dd3	0.16173486
51	0x3d79bfce	0.060973935
52	0xbce70b64	-0.028203674
53	0x3da26006	0.07928471
54	0x3e22c732	0.158963
55	0x3dee9be2	0.11650826
56	0x3dbec636	0.093151495
57	0x3cc7db7e	0.024396654
58	0x3d2b5287	0.04182675
59	0x3cd35233	0.025796032
60	0x3ab40adc	0.0013736147
61	0xbcbc5834	-0.022991277
62	0x3d5b6f4d	0.05357294
63	0x3d6d3663	0.057913195
64	0x3db80b2a	0.089865044
65	0xbbb2b943	-0.005454214
66	0xbd9532ec	-0.07285103
67	0xbba737ff	-0.005103111
68	0x3e01e761	0.1268592
69	0x3cbf5f9b	0.023361018
70	0xbe0ada48	-0.1355983
71	0x3dbf6ec0	0.09347296
72	0xbd396bf8	-0.045268983
73	0xbd2b6579	-0.04184482
74	0x3e1396fd	0.14413066
75	0x3dd225d1	0.10261119
76	0x3cc00cc0	0.02344358
77	0xbc4a1fd7	-0.012336693
78	0x3dbe23bf	0.09284162
79	0x3dc54972	0.09633149
80	0x3d7c5b3b	0.06161044
81	0xbc73b1b3	-0.01487391
82	0x3c535fad	0.012901229
83	0x3db62ddf	0.08895468
84	0xbc0459e9	-0.008078077
85	0xbda54a66	-0.08070831
86	0xbd526af0	-0.051371515
87	0xbd26ac04	-0.04069139
88	0xbcd8feca	-0.02648868
89	0xbd4140ff	-0.047181126
90	0xbe071d32	-0.13194731
91	0x3dfaf400	0.122535706
92	0x3c16029a	0.009155894
93	0xbc4da0db	-0.012550558
94	0xbd114570	-0.03546661
95	0xbb80e04b	-0.003932988
96	0x3d18afa2	0.03727687
97	0xbd2adaee	-0.041712694
98	0x3d80fabf	0.06297826
99	0x3d9b0916	0.075700924
100	0x3cc0b547	0.02352394
101	0x3da2ba1a	0.07945652
102	0xbd2fa065	-0.042877574
103	0xbe152124	-0.14563423
104	0xbbcf1d5e	-0.0063206395
105	0x3bdb970f	0.006701357
106	0x3d69b347	0.057055738
107	0x3c757927	0.014982498
108	0xbc850a0a	-0.016240139
109	0x3d976107	0.07391553
110	0xbd025de8	-0.031827837
111	0xbe0d3021	-0.13787891
112	0x3dec6a37	0.115436964
113	0x3dc7c962	0.097552076
114	0xbd0dbf22	-0.034606107
115	0x3d68efcb	0.05686931
116	0xbd533bbe	-0.051570646
117	0x3dea9291	0.114537366
118	0x3da1e5e3	0.079051755
119	0x3dd48064	0.10376051
120	0xbdd84087	-0.105591826
121	0x3d7ca079	0.061676476
122	0x3d2c85ba	0.04211972
123	0xbd47f9ab	-0.048822086
124	0x3de928c8	0.113847315
125	0x3b7a25b5	0.0038169448
126	0x3e32d4aa	0.17463937
127	0x3da6b165	0.08139304
128	0x3d72ad60	0.059247375
129	0x3dc201b8	0.09472984
130	0x3e0b3b18	0.13596761
131	0x3d98df5c	0.074644774
132	0xba0e71b8	-0.00054338155
133	0xbdb8710a	-0.090059355
134	0xbdd8e444	-0.10590413
135	0xbd171b57	-0.036891308
136	0x3d134f16	0.035964094
137	0x3d547052	0.05186493
138	0x3d932ac1	0.07185889
139	0xbcfad27d	-0.030617947
140	0x3e431f20	0.19054842
141	0x3e28128e	0.16413328
142	0x3d72cfbe	0.05928015
143	0x3d0c9191	0.03431851
144	0x3d8c7b9c	0.06859514
145	0x3d95899e	0.07301639
146	0xbe09c944	-0.13455683
147	0xbd17abf4	-0.03702922
148	0x3e06d5d6	0.1316751
149	0x3ce7b881	0.02828622
150	0xbd672ec8	-0.0564411
151	0x3e09f554	0.13472492
152	0xbdc88376	-0.09790699
153	0xbe021a4d	-0.12705345
154	0xbd4c1c82	-0.049831875
155	0x3d9aecbd	0.075646855
156	0xbc1e3ee4	-0.009658549
157	0x3d81d641	0.06339694
158	0x3da82ca1	0.08211637
159	0x3d60459c	0.054753885
160	0x3c314829	0.010820427
161	0xbc10ae8b	-0.008830677
162	0xbdbdded6	-0.09271018
163	0x3df79a69	0.12089998
164	0x3c7b461a	0.015336538
165	0xbda90798	-0.082534015
166	0xbdb79097	-0.08963125
167	0xbcf41f78	-0.029800162
168	0x3c3c0d63	0.011477801
169	0xbdb47edf	-0.08813261
170	0xbc134491	-0.0089885155
171	0x3dbb6fb0	0.09152162
172	0xbbde096b	-0.006776025
173	0xbcd1059d	-0.025515372
174	0x3e21be90	0.1579535
175	0x3dc22b7f	0.094809525
176	0x3e251009	0.16119398
177	0xbdceb131	-0.1009239
178	0xbdeab0b3	-0.11459484
179	0xbd063f98	-0.03277549
180	0x3c4a90c6	0.012363618
181	0xbdc50417	-0.09619921
182	0xbd9d151d	-0.07670043
183	0xbdb69dda	-0.089168265
184	0xbd46a45f	-0.0484966
185	0xbd7e0bf6	-0.062023126
186	0xbc27450e	-0.010209335
187	0x3e38bafe	0.18040082
188	0x3c1068e4	0.00881407
189	0xbda6b71d	-0.08140395
190	0x3dda257b	0.1065168
191	0x3e11bd25	0.14232309
192	0xbda54a15	-0.08070771
193	0x3e1072cd	0.14106293
194	0xbd00e386	-0.031466983
195	0x3dddd773	0.10832109
196	0xbd70e0e8	-0.058808237
197	0xbd843a3f	-0.06456422
198	0xbcd1970f	-0.025584726
199	0x3c779183	0.015110376
200	0x3d10dac2	0.035364874
201	0x3d8c5948	0.068529665
202	0x3e4bb79b	0.19894259
203	0x3e26fc1e	0.16307113
204	0xbd099b76	-0.033595525
205	0x3d54ab4b	0.05192117
206	0xbbce2d47	-0.0062920186
207	0x3c806cba	0.015676845
208	0x3e244de3	0.16045336
209	0x3e23cc4d	0.15995903
210	0x3c062edb	0.008189882
211	0xbc7582d4	-0.014984805
212	0x3ba7cd95	0.005120943
213	0x3d79c56d	0.060979296
214	0xbd69a7f6	-0.057044946
215	0x3cb714a2	0.022348706
216	0x3d5d9cf9	0.05410478
217	0x3dfe41b2	0.12414874
218	0x3d456ed0	0.048201382
219	0xbd48e3d8	-0.049045414
220	0x3c60937f	0.013707041
221	0xbaa72194	-0.0012751096
222	0x3d986bb4	0.07442418
223	0xbc0795d1	-0.008275465
224	0xbd2b15a4	-0.041768685
225	0xbd81fcfe	-0.063470826
226	0x3d146fba	0.036239363
227	0x3d58ccb9	0.052929614
228	0x3d90def7	0.07073777
229	0x3dc15716	0.094404384
230	0x3e129158	0.14313257
231	0x3e28c535	0.16481479
232	0xbd3d49c3	-0.046212923
233	0xbc4860c1	-0.012230099
234	0xbd7afa05	-0.061273593
235	0xbcb48aa9	-0.022038775
236	0x3e01fde6	0.12694511
237	0x3cb07550	0.021540314
238	0xbcebe451	-0.028795393
239	0x3d410fae	0.047134094
240	0xbdb3c8dc	-0.08778545
241	0xbd985af6	-0.074392244
242	0xbd503b33	-0.050837707
243	0xbce84b97	-0.028356357
244	0x3db198ff	0.0867176
245	0x3e27ac9c	0.16374439
246	0xbe134ef8	-0.14385593
247	0x3dd0964b	0.10184916
248	0x3e0e5713	0.13900404
249	0x3d47df7c	0.048797116
250	0x3e1aebac	0.15128964
251	0xbe001662	-0.12508538
252	0xbd441aea	-0.04787723
253	0xbd97b5e2	-0.07407738
254	0xbd6c55d0	-0.057699025
255	0x3d9f1816	0.07768266

block4.downsample.bias f4 [64]
0	0x3de23708	0.11045653
1	0xbe0c2868	-0.13687289
2	0xbe27ae42	-0.16375068
3	0xbd6bfa3c	-0.05761169
4	0xbdf98dd2	-0.12185253
5	0x3ce2ae6e	0.027671065
6	0x3e2866ac	0.16445416
7	0xbe52be70	-0.20580459
8	0x3cfa5e4c	0.030562542
9	0x3e3284ae	0.17433426
10	0xbd866267	-0.065617375
11	0xbd9c6e80	-0.07638264
12	0x3d92437b	0.07141777
13	0xbdb506d8	-0.08839196
14	0x3d27bb21	0.040949944
15	0xbbf9531f	-0.0076087858
16	0x3d64a3db	0.055820327
17	0x3c898dd1	0.016791256
18	0x3db40d39	0.087915845
19	0xbde5624b	-0.112003885
20	0x3e401743	0.18758874
21	0x3e58d2dc	0.21174186
22	0xbde8a1f1	-0.11359013
23	0x3d4540d2	0.04815752
24	0x3cd4778a	0.025935907
25	0xbd46818d	-0.048463393
26	0xbdf29e0c	-0.11846551
27	0xbdd320a7	-0.10308962
28	0xbe164e75	-0.14678366
29	0x3d031f94	0.032012537
30	0x3d9ae95f	0.07564043
31	0xbc096f5c	-0.008388367
32	0xbdf9cfa8	-0.121978104
33	0x3e2e9224	0.17047936
34	0x3dc55fe5	0.09637431
35	0xbd2a9ecc	-0.041655347
36	0xbe31a1aa	-0.17346826
37	0x3da7237d	0.08161066
38	0xbc7ff3bc	-0.015622076
39	0xbd82e6d7	-0.063916855
40	0xbc2311ca	-0.009952972
41	0xbd8d8c20	-0.06911492
42	0x3cca0805	0.024662027
43	0xbe0f991b	-0.14023249
44	0x3e92ae9f	0.2864885
45	0xbd85058f	-0.06495201
46	0x3cba0e65	0.022711942
47	0x3ddd9cfc	0.10820958
48	0xbd2298ce	-0.039696507
49	0xbde4c659	-0.11170644
50	0xbd36e880	-0.044655323
51	0xbdb08f86	-0.08621125
52	0xbd2b915b	-0.04188667
53	0xbdc2cf5c	-0.09512207
54	0xbdf3faff	-0.11913108
55	0xbdf28233	-0.1184124
56	0xbce7778e	-0.02825525
57	0xbe0e6e89	-0.13909353
58	0xbde24fb6	-0.1105036
59	0x3e47155e	0.19441745
60	0xbd942e72	-0.07235421
61	0x3cf0b48a	0.029382963
62	0x3e0e8d2e	0.13921043
63	0xbe23df05	-0.16003044

conv1.weight f4 [16, 8, 1, 1]
0	0xbf08d1be	-0.5344504
1	0x3d8e38e2	0.06944443
2	0xbdba2ef3	-0.09090986
3	0xbe8596e4	-0.26091683
4	0x3ec3034f	0.38088462
5	0x3eeaf0d6	0.45886868
6	0x3bc24695	0.005928824
7	0x3ea4dbd9	0.3219898
8	0x3d6ff7ad	0.05858581
9	0x3e1bc585	0.15212066
10	0x3beb0c2a	0.007173081
11	0xbdc5b086	-0.0965281
12	0xbdc2537c	-0.0948858
13	0xbfc16644	-1.5109334
14	0x3e188429	0.14894165
15	0x3e57dd6c	0.2108056
16	0x3e53961b	0.2066273
17	0xbde7bebb	-0.11315676
18	0x3c974255	0.018464247
19	0xbe401b01	-0.18760301
20	0xbe21b057	-0.15789925
21	0xbf102bab	-0.5631663
22	0x3e8f2806	0.27960223
23	0x3eaf3b2d	0.34224835
24	0xbee378d3	-0.4442812
25	0x3e98b509	0.2982562
26	0xbc08d721	-0.008352072
27	0xbe2dea1d	-0.16983838
28	0xbd4f5df5	-0.050626714
29	0xbe8df8c3	-0.27728853
30	0x3e325d98	0.17418516
31	0x3e93644b	0.28787455
32	0xb92ca413	-0.0001646432
33	0xbd7b5dc7	-0.06136873
34	0xbe7585f4	-0.2397688
35	0xbe9a6413	-0.30154476
36	0xbd143aa7	-0.036188748
37	0xbea02cfe	-0.31284326
38	0xbe929db2	-0.28635937
39	0xbd444522	-0.047917493
40	0x3d58a391	0.052890364
41	0xbf055c29	-0.5209375
42	0x3eae8da4	0.34092438
43	0x3d996175	0.074892916
44	0x3e5a2a16	0.21305117
45	0x3e87d338	0.26528335
46	0xbe1e1f22	-0.15441564
47	0xbe1bcc7a	-0.1521472
48	0x3cec64ad	0.0288566
49	0xbf0d8bd8	-0.5529151
50	0x3daacd3d	0.08339927
51	0xbe4bf346	-0.1991702
52	0x3da4ecfe	0.08053015
53	0x3d7699d0	0.06020528
54	0x3eb264d5	0.34842554
55	0x3ec95085	0.39319244
56	0x3ed9c9cc	0.4253677
57	0x3eb5ceef	0.3550944
58	0xbce234bb	-0.027613034
59	0x3e012e15	0.12615235
60	0x3db713c3	0.08939316
61	0x3e3f3dbe	0.18675897
62	0x3ebae906	0.36505908
63	0xbdbe5e7e	-0.09295367
64	0xbea2d377	-0.3180196
65	0xbf1edac8	-0.62052584
66	0xbe065e26	-0.13121852
67	0x3e120ca5	0.14262636
68	0x3e87afe9	0.26501396
69	0x3d6a95fc	0.057271942
70	0xbde1bbdf	-0.11022162
71	0x3f058b9e	0.52166164
72	0x3ec5adfe	0.38609308
73	0x3c7ec73e	0.015550433
74	0x3cf0ab92	0.029378686
75	0xbe22647e	-0.15858647
76	0x3ed42b33	0.41439208
77	0xbe82536a	-0.25454265
78	0xbdccfbcb	-0.10008963
79	0x3c942ecc	0.01808872
80	0x3d6ce314	0.057833746
81	0xbf9ff8ed	-1.2497841
82	0x3d3239c0	0.043512106
83	0xbe8f7665	-0.28020015
84	0x3dcb8500	0.09937477
85	0x3da9bb02	0.08287622
86	0x3e86bb73	0.26314887
87	0x3eb4c887	0.3530924
88	0xbd7a3a1c	-0.061090574
89	0x3bff89ca	0.007798408
90	0x3eda79ce	0.42671055
91	0x3ebe3586	0.3715021
92	0xbd391b63	-0.045192134
93	0xbd8131a6	-0.06308298
94	0x3de72376	0.112860605
95	0x3d1ec78d	0.038764525
96	0x3ea14c05	0.3150331
97	0x3bfe0125	0.0077516013
98	0xbeaee2b4	-0.34157336
99	0xbc4e25ca	-0.012582252
100	0x3e1c08d4	0.15237743
101	0xbeb96ee6	-0.3621742
102	0x3ea704ea	0.32620937
103	0xbdb22c50	-0.08699858
104	0x3e855b17	0.2604606
105	0xbe713893	-0.23556738
106	0xbd8a65b0	-0.067576766
107	0xbc87d249	-0.016579764
108	0xbe65be65	-0.22435911
109	0x3e9f5319	0.31118086
110	0xbca61edb	-0.020278385
111	0x3e8bec7d	0.27328864
112	0xbeeb4992	-0.45954567
113	0xbf66dbea	-0.9017931
114	0xbe29b9d4	-0.16574794
115	0xbdcdc90a	-0.10048111
116	0x3dc6179f	0.09672474
117	0x3eb63139	0.3558443
118	0xbd5b6069	-0.05355874
119	0x3e760ce0	0.24028349
120	0x3ea22106	0.3166582
121	0x3e606d00	0.2191658
122	0x3eda905b	0.4268826
123	0xbe4866d0	-0.1957047
124	0x3c33ae1c	0.010966804
125	0x3dba8e9a	0.0910923
126	0xbdead445	-0.114662685
127	0x3e4fd7a3	0.20297103

conv2.weight f4 [16, 16, 1, 1]
0	0x3e6429d7	0.22281586
1	0x3da87556	0.08225505
2	0xbc2e164f	-0.010625436
3	0x3d8ce7a8	0.068801224
4	0x3dc52d3a	0.09627767
5	0x3dcdc05e	0.10046457
6	0x3dfd595b	0.12370559
7	0x3e3b1a71	0.18271805
8	0xbd40151e	-0.04689514
9	0x3dbdb47c	0.0926294
10	0x3d60a02f	0.054840263
11	0xbe8ac6c2	-0.27104765
12	0x3e3efdee	0.18651554
13	0x3e8916a9	0.267751
14	0xbd905171	-0.07046784
15	0xbe8e7331	-0.2782226
16	0x3ccb8744	0.024844773
17	0x3e517ef9	0.20458592
18	0xbd00dd3b	-0.03146098
19	0x3ec4d185	0.384411
20	0x3d8b7d01	0.06810952
21	0x3e17f217	0.14838444
22	0xbebd4e82	-0.3697396
23	0x3d26f593	0.04076154
24	0x3d240342	0.04004217
25	0x3c5f527b	0.013630505
26	0xbd45e0f2	-0.048310228
27	0xbd028a86	-0.031870387
28	0xbc4797c4	-0.01218218
29	0xbd11b9c3	-0.035577547
30	0x3dc61d5f	0.09673571
31	0x3ee43c54	0.44577277
32	0x3dcf8c9c	0.10134241
33	0x3ea07e7b	0.31346497
34	0x3e6aec05	0.22941597
35	0x3870ae6d	5.7382906e-05
36	0x3dae9468	0.085244
37	0x3d4b95d1	0.049703423
38	0x3dbfde88	0.09368616
39	0xbd4332b3	-0.047655772
40	0x3d8a5499	0.06754417
41	0x3e5f472e	0.21804497
42	0xbe57c0c5	-0.2106963
43	0xbd003ac0	-0.03130603
44	0xbda8810a	-0.08227737
45	0xbed1d6ee	-0.4098429
46	0x3e1c7d66	0.1528221
47	0xbd69b872	-0.057060666
48	0x3d17c7b8	0.0370557
49	0xbcfd790a	-0.030941505
50	0x3e8f3ecb	0.27977595
51	0x3e698227	0.22803555
52	0x3e2d8907	0.16946803
53	0xbdc98b3e	-0.098410115
54	0xbe5f265d	-0.21791978
55	0xbd859afa	-0.065237
56	0x3e37c45c	0.17945999
57	0x3dbc5682	0.091961876
58	0xbec09e0b	-0.37620577
59	0xbdaff4c2	-0.08591606
60	0x3ead7732	0.3388
61	0x3de2ae5c	0.11068413
62	0x3e05b082	0.13055614
63	0xbcff4b80	-0.03116393
64	0xbe761b9a	-0.24033967
65	0x3e6c6b24	0.23087746
66	0x3e920b7e	0.28524393
67	0xbdca4fc0	-0.09878492
68	0x3e677dc0	0.22606564
69	0x3e1d89b4	0.15384561
70	0x3c8a434e	0.016877797
71	0x3ebe2c54	0.37143195
72	0xbd3f2756	-0.046668373
73	0xbcd69f3f	-0.026198981
74	0xbca2e0e6	-0.01988263
75	0xbce111b1	-0.027474256
76	0x3e9afd0c	0.30271184
77	0xbd867bcd	-0.06566582
78	0xbd85cc96	-0.06533162
79	0xbe8200b7	-0.2539117
80	0xbc36860c	-0.011140358
81	0x3eac3f45	0.3364202
82	0xbe0582dd	-0.13038202
83	0x3e0f5431	0.1399696
84	0xbe9d1e07	-0.30686972
85	0x3da0ff47	0.0786119
86	0x3e1eb4a6	0.154986
87	0x3d945882	0.07243444
88	0x3e950b20	0.2911005
89	0xbd25ac5b	-0.040447574
90	0xbec0e21f	-0.37672517
91	0xbcafa85b	-0.021442583
92	0x3d0b487e	0.03400468
93	0x3e25e017	0.16198765
94	0x3e0c2e2d	0.1368949
95	0x3cfbc52a	0.030733664
96	0x3e0f173f	0.13973711
97	0x3d062381	0.032748703
98	0x3dbca212	0.092106
99	0x3e28cb79	0.16483869
100	0xbdbadd9d	-0.09124301
101	0x3d2d52de	0.042315356
102	0x3c1a998f	0.009436025
103	0xbdca2ca3	-0.09871795
104	0x3e9a17d4	0.30096304
105	0xbda3c2a4	-0.07996109
106	0x3e074754	0.13210803
107	0x3d8098ad	0.062791206
108	0x3eb13fae	0.34618896
109	0xbe236e26	-0.15959987
110	0xbe1ddb9a	-0.15415803
111	0xbdd10cb7	-0.10207503
112	0xbdf95de3	-0.121761106
113	0xbce602be	-0.02807748
114	0xbc98ef9b	-0.01866894
115	0x3d9f686f	0.07783591
116	0x3eb6e23a	0.35719472
117	0xbe127ad3	-0.14304666
118	0x3eb9541f	0.36196992
119	0xbe0df09e	-0.1386132
120	0x3d38a027	0.04507461
121	0x3e31ce81	0.17363931
122	0x3c0825f7	0.008309833
123	0x3d582f27	0.052779343
124	0x3dcde102	0.100526825
125	0x3d21764d	0.03941946
126	0x3ca36dd3	0.01994983
127	0x3cb5786c	0.022152148
128	0x3bb0ae7b	0.0053918934
129	0x3d27275c	0.04080902
130	0x3efc719e	0.49305433
131	0x3dd212e5	0.1025751
132	0x3b1f2cf1	0.0024288262
133	0xbdf3f08b	-0.11911114
134	0x3d93b145	0.07211546
135	0xbcc78571	-0.024355622
136	0x3c462964	0.012094829
137	0xbe2bb536	-0.16768345
138	0x3e20ade3	0.15691333
139	0x3d1973cd	0.03746395
140	0xbbb85141	-0.0056249206
141	0x3e0986de	0.13430354
142	0xbd72465c	-0.05914913
143	0x3c89db89	0.016828315
144	0x3dd9918f	0.10623466
145	0xbea22bbd	-0.31673995
146	0x3e78d96c	0.2430169
147	0x3d54f0c0	0.05198741
148	0x3cbb1ec3	0.022841817
149	0x3de18b3a	0.110128835
150	0x3dcda4bd	0.10041187
151	0x3e8203f0	0.2539363
152	0x3e5dba88	0.21653187
153	0x3d8fbdc4	0.07018617
154	0xbe10a1d3	-0.14124231
155	0x3eabb046	0.33532923
156	0xbde20f8f	-0.11038124
157	0xbda3646a	-0.07978137
158	0xbd0caf39	-0.034346793
159	0x3dfa5e0f	0.122249715
160	0x3e8120a3	0.25220212
161	0x3d75e51e	0.060032956
162	0xbc73e0db	-0.014885153
163	0xbe3eec4e	-0.1864483
164	0x3d8066ff	0.06269645
165	0x3e09bb89	0.13450445
166	0x3e4834ae	0.19551346
167	0xbd94f94c	-0.07274112
168	0xbe131053	-0.14361696
169	0xbee4da81	-0.44697955
170	0x3bf959ff	0.0076096053
171	0x3e18ed62	0.14934304
172	0x3e093c21	0.13401844
173	0x3decfc2e	0.11571537
174	0xbe52bfbe	-0.20580956
175	0x3e7dfcea	0.2480351
176	0x3a2b0d12	0.000652508
177	0xbe25d71a	-0.16195336
178	0xbd84b324	-0.06479481
179	0xbd578e95	-0.05262621
180	0xbc3c195a	-0.011480654
181	0x3cb1f7b3	0.021724558
182	0xbcc1ac70	-0.023641795
183	0x3daa16d2	0.08305134
184	0x3e1a221c	0.15052074
185	0xbc936642	-0.017993096
186	0x3e8a2f0f	0.26989028
187	0xbd8d0a8b	-0.068867765
188	0xbe1e1bf9	-0.15440358
189	0x3dfb677c	0.122755975
190	0x3ed58bd9	0.41708258
191	0xbcf428d6	-0.029804628
192	0x3de58e6a	0.11208804
193	0x3e1e3529	0.15449966
194	0x3d21e40a	0.039524116
195	0xbd71d31f	-0.05903923
196	0x3db3d92c	0.087816566
197	0x3d954ff5	0.07290641
198	0x3db1adc8	0.08675724
199	0xbdbbeaa1	-0.09175611
200	0xbcc44130	-0.023956865
201	0xbd801d03	-0.062555335
202	0xbe181d89	-0.14855017
203	0xbbdf011b	-0.0068055517
204	0x3de75f51	0.11297477
205	0x3c63b202	0.013897421
206	0xbf30ad49	-0.6901441
207	0x3e5aabf5	0.21354659
208	0xbd657f50	-0.056029618
209	0x3cf8f068	0.030388072
210	0x3e58653e	0.21132371
211	0xbd079950	-0.033105195
212	0xbe8a321e	-0.2699136
213	0x3de640b9	0.112428136
214	0x3cd22150	0.02565065
215	0xbdcd214e	-0.10016118
216	0xbdefd466	-0.11710434
217	0x3ebdd68e	0.37077755
218	0x3d8d606a	0.06903155
219	0x3e850090	0.25976992
220	0x3e37d3b5	0.17951854
221	0x3e998388	0.29983163
222	0xbdbe1623	-0.09281566
223	0xbda6af98	-0.081389606
224	0x3d3c0ef8	0.045912713
225	0x3e160095	0.1464866
226	0xbd085ddf	-0.033292647
227	0xbe4cc96a	-0.19998708
228	0xbcb2f6bd	-0.02184617
229	0xbe2a8871	-0.16653611
230	0xbe47d7ee	-0.19515964
231	0x3c9c5036	0.019081216
232	0x3ef35d85	0.47532287
233	0x3e1400ac	0.14453381
234	0xbe44b351	-0.19209029
235	0x3d92bb47	0.071646266
236	0xbe0e2d6a	-0.13884512
237	0x3df43392	0.11923899
238	0x3de03dfd	0.10949323
239	0x3eb872f3	0.360252
240	0x3d51eca5	0.051251072
241	0x3d9bcbac	0.07607207
242	0xbd8cb9c7	-0.06871372
243	0x3e180ce7	0.14848672
244	0x3def401a	0.11682148
245	0x3c1aced9	0.00944873
246	0x3ccf6261	0.025315465
247	0xbd3d969b	-0.046286207
248	0x3c32aee9	0.01090596
249	0xbc07b986	-0.008283978
250	0xbd31cbe2	-0.04340733
251	0x3ef75aff	0.48311612
252	0x3ae3fdb0	0.001739433
253	0x3e6b724f	0.22992824
254	0xbe2600b6	-0.16211209
255	0xbeab290b	-0.3342975

conv3.weight f4 [16, 32, 1, 1]
0	0xbe30307c	-0.17205995
1	0xbcccc26f	-0.024995057
2	0x3e1d3f65	0.15356214
3	0x3e1841ae	0.14868805
4	0x3d95d990	0.073168874
5	0xbe122cfe	-0.14274976
6	0x3c956a25	0.01823909
7	0xbdb7aff7	-0.089691095
8	0x3d8dbbe9	0.06920607
9	0x3e8097b5	0.25115743
10	0xbba0d4a1	-0.00490816
11	0x3d0813e3	0.03322209
12	0x3db14c1b	0.08657094
13	0xbdbae0dd	-0.091249205
14	0xbd9522d2	-0.07282032
15	0xbda77ef3	-0.081785105
16	0xbca4dea6	-0.020125698
17	0xbe3198cd	-0.17343445
18	0xbb1b8acf	-0.002373386
19	0xbbeee798	-0.0072907917
20	0x3ddf8be0	0.10915351
21	0x3e670c66	0.22563323
22	0xbcf66c63	-0.03008098
23	0x3d31b5c0	0.04338622
24	0xbc381a81	-0.011236788
25	0x3cb8e11d	0.02256828
26	0x3b877519	0.004133832
27	0x3dd7fce8	0.10546285
28	0x3cfad477	0.03061889
29	0xbb8a0923	-0.004212515
30	0xbc6ce0c3	-0.014457884
31	0x3ce10aa0	0.027470887
32	0x3e47134c	0.19440955
33	0xbd3a20e0	-0.04544151
34	0x3db8584e	0.09001218
35	0xbdf473ed	-0.119361736
36	0xbd1a538b	-0.03767733
37	0xbe1ea03c	-0.15490812
38	0x3d1e4757	0.038642254
39	0x3dec19c2	0.115283504
40	0x3cc07dce	0.023497488
41	0xbdf475ec	-0.11936554
42	0x3d80e1fc	0.06293103
43	0xbddd5590	-0.108073354
44	0x3d50c608	0.050970107
45	0x3e0c4dbd	0.1370153
46	0xbe0907e9	-0.13381924
47	0xbd18d130	-0.03730887
48	0x3dbf166a	0.09330447
49	0x3dc0358f	0.093852155
50	0xbda45f1d	-0.08025954
51	0x3c718550	0.014741257
52	0x3daa5fdb	0.08319064
53	0x3e6291ae	0.22125885
54	0xbca1e81e	-0.019764002
55	0x3e2a5efa	0.16637793
56	0xbc9ae967	-0.018910123
57	0x3d872fba	0.066009
58	0xbe219162	-0.15778115
59	0x3df6e125	0.12054662
60	0x3cb7e71b	0.022449067
61	0xbd33fb7a	-0.043941
62	0xbd063bf2	-0.032772012
63	0x3e09b310	0.13447213
64	0xbc2f9a95	-0.010718008
65	0xba5b3931	-0.0008362709
66	0xbdb388f6	-0.087663576
67	0x3cb83c37	0.02248965
68	0x3d6b2e64	0.05741729
69	0xbd3a3da3	-0.045468938
70	0x3dbd2582	0.0923567
71	0xbcf76e4d	-0.030203963
72	0x3dba507d	0.09097383
73	0x3d96c92d	0.0736259
74	0x3cc0c2e4	0.023530431
75	0x3dcb8658	0.099377334
76	0xbde1492c	-0.110002846
77	0x3e3fd9f3	0.18735485
78	0xbdb49925	-0.088182725
79	0x3e0ae79e	0.13564917
80	0x3e006a1f	0.12540482
81	0x3d3bf5e6	0.045888804
82	0xbd82972d	-0.06376491
83	0x3d0c3fee	0.034240656
84	0x3e171b51	0.14756514
85	0x3d88eadd	0.066854216
86	0x3e20ea95	0.15714486
87	0xbdff2c93	-0.12459674
88	0x3c1e7d86	0.009673482
89	0xbc0fe54f	-0.008782699
90	0xbe414f5f	-0.18877934
91	0xbd12db1b	-0.035853487
92	0x3e521ff9	0.20520009
93	0xbd3a9838	-0.045555323
94	0xbd04f5d9	-0.03246102
95	0xbe0a66b4	-0.1351574
96	0x3d90655d	0.070505835
97	0xbd0298e9	-0.031884108
98	0x3de9893e	0.1140313
99	0xbdd75420	-0.105140924
100	0xbe2e7cf6	-0.17039856
101	0xbceacaea	-0.02866121
102	0xbdc117a7	-0.094283395
103	0xbe1f2434	-0.15541154
104	0xbd010c51	-0.031505886
105	0xbd5bea92	-0.0536905
106	0x3d5d5cfd	0.05404376
107	0xbcd13265	-0.025536725
108	0xbe13bb7b	-0.14426987
109	0xbe2a3ba0	-0.16624308
110	0xbdfd49f6	-0.123676226
111	0x3d8bbf06	0.06823544
112	0x3d07f8ae	0.033196144
113	0xbd85f7a2	-0.06541373
114	0xbb02c4b5	-0.0019953672
115	0xbd694c5a	-0.05695758
116	0xbda663ce	-0.08124505
117	0xbe34f555	-0.17671712
118	0xbe327d3e	-0.17430589
119	0xbe164aa8	-0.14676917
120	0xbdf6b798	-0.120467365
121	0xbe0ff44d	-0.14058037
122	0xbda58044	-0.08081105
123	0x3dedd3ec	0.116126865
124	0xbdffd3ca	-0.124915674
125	0xbe284e2e	-0.16436073
126	0x3deaad49	0.11458833
127	0x3dc636df	0.096784346
128	0x3cb34f25	0.021888325
129	0xbbff53c1	-0.0077919667
130	0x3e225dff	0.15856169
131	0xbd822403	-0.06354525
132	0xbe4ed4a4	-0.20198303
133	0xbdcc608f	-0.099793546
134	0xbdcd8a97	-0.100361995
135	0x3e75ec7c	0.24015993
136	0x3d939b0c	0.07207307
137	0x3e404649	0.18776812
138	0xbbcc9757	-0.006243627
139	0xbd97756b	-0.073954426
140	0x3d6e581c	0.058189496
141	0xbdf45f4c	-0.11932239
142	0xbdb615fd	-0.08890913
143	0x3e100b19	0.14066733
144	0x3e250df2	0.16118601
145	0x3d93bc9b	0.07213708
146	0xbcb5c418	-0.022188231
147	0x3c650c67	0.013980008
148	0x3d02d02e	0.031936817
149	0xbbe60adc	-0.0070203375
150	0x3df6c008	0.12048346
151	0xbb14f4ff	-0.0022729037
152	0xbd8131f8	-0.06308359
153	0xbd1f6347	-0.038913038
154	0x3d90de3a	0.07073636
155	0x3d03179e	0.032004945
156	0x3de5978d	0.11210547
157	0xbd2d11f1	-0.04225344
158	0xbd3104c4	-0.043217435
159	0x3db0be2d	0.08630023
160	0xbd5d4d70	-0.05402893
161	0x3d814c40	0.06313372
162	0x3e3e18e2	0.1856418
163	0xbe2a1c82	-0.16612437
164	0xbdf3c193	-0.11902156
165	0x3d86c840	0.065811634
166	0x3e004baa	0.12528864
167	0xbe1e13f6	-0.15437302
168	0x3cf903d3	0.030397331
169	0x3c75607b	0.014976616
170	0xbd06b3f0	-0.032886446
171	0xbd417d63	-0.04723872
172	0x3e5a5aec	0.21323746
173	0x3d22be0f	0.039732035
174	0xbdbc826e	-0.09204565
175	0x3e411401	0.18855287
176	0x3d68b9fd	0.056817997
177	0x3df822de	0.121160254
178	0x3da3ed4e	0.08004247
179	0xbd8d36b4	-0.068951994
180	0xbb61c8ba	-0.0034451918
181	0x3e0c8a4e	0.13724634
182	0xbe2e78b1	-0.17038228
183	0xbde42b3f	-0.11141061
184	0x3cda9c5e	0.02668589
185	0xbe50887c	-0.20364565
186	0x3d0dcd19	0.034619424
187	0x3d32d69b	0.043661695
188	0x3e0d7bef	0.13816808
189	0x3c7cf335	0.015438844
190	0x3d7f25f1	0.062292043
191	0x3e3166bd	0.17324348
192	0x3dc52780	0.09626675
193	0x3d43b80f	0.047782954
194	0x3de66021	0.11248804
195	0x3c3c31a1	0.011486442
196	0xbd3c7edf	-0.04601943
197	0xbb84dde9	-0.004054774
198	0x3dd9d5c2	0.10636474
199	0x3d07440e	0.033023886
200	0x3e09d35c	0.13459533
201	0x3d241359	0.040057514
202	0x3ce583fb	0.028017035
203	0x3d46d262	0.04854048
204	0x3e876b9d	0.2644929
205	0x3d3d9abf	0.046290156
206	0x3a37c5bc	0.0007010361
207	0x3dbb8c2f	0.09157597
208	0xbdef83e6	-0.116950795
209	0xbdef786b	-0.1169289
210	0x3e0dee94	0.13860542
211	0x3c00897d	0.00784528
212	0x3e6a6a9f	0.22892235
213	0xbe1ec34e	-0.1550419
214	0xbe626247	-0.22107802
215	0xbbf3440a	-0.0074238824
216	0x3c8f3dee	0.017485585
217	0x3d27e233	0.040987205
218	0xbdd8fcab	-0.105950676
219	0x3d18db8c	0.03731875
220	0x3d81ec06	0.06343846
221	0x3d660185	0.056153793
222	0x3d8d7af7	0.06908219
223	0xbd04141c	-0.03224574
224	0x3df5eaa3	0.12007644
225	0xbd23d13d	-0.039994467
226	0xbe20cf96	-0.15704188
227	0x3e619d7e	0.22032735
228	0xbc973694	-0.018458642
229	0xbdae81ac	-0.08520827
230	0x3e4f5ffd	0.2025146
231	0x3d843c5f	0.06456827
232	0x3d59f70a	0.05321411
233	0xbbbd7c99	-0.0057826755
234	0xbcecbc43	-0.028898364
235	0x3e613fd7	0.21997009
236	0x3dd54a82	0.10414602
237	0xbe0884d0	-0.13331914
238	0xbd73a024	-0.059478894
239	0xbd20a75e	-0.039222114
240	0x3d9875ab	0.074443184
241	0x3c884d7c	0.01663851
242	0xbd90c479	-0.07068724
243	0x3acd4445	0.0015660605
244	0xbde3025d	-0.11084435
245	0x3d196442	0.03744913
246	0xbe16ba3a	-0.14719477
247	0xbd4abca4	-0.049496308
248	0xb81ad808	-3.6917656e-05
249	0xbdf2cb7b	-0.11855217
250	0x3e052e95	0.13006051
251	0xbb777666	-0.003775978
252	0x3e401793	0.18758993
253	0xbc96d50e	-0.01841214
254	0xbcd643d6	-0.026155394
255	0x3da4bd63	0.08043935

conv4.weight f4 [16, 64, 1, 1]
0	0xbd59f5d5	-0.05321296
1	0x3dfa2824	0.122146875
2	0x3daa1762	0.08305241
3	0xbd9fc205	-0.07800678
4	0x3cd3b986	0.0258453
5	0xbdd1983c	-0.102341145
6	0xbd613de8	-0.05499068
7	0xbc9e4cc7	-0.01932372
8	0x3d2798c3	0.04091717
9	0xbd378399	-0.044803236
10	0x3dcf870f	0.10133182
11	0xbdc35572	-0.09537782
12	0xbd8568d2	-0.065141335
13	0xbe1b8503	-0.15187459
14	0x3d6f6292	0.058443613
15	0x3ce96962	0.028492633
16	0x3c542ba0	0.012949854
17	0x3defeb6c	0.11714825
18	0xbcff3859	-0.031154798
19	0xbda0a19b	-0.07843324
20	0x3c053c24	0.008132014
21	0xbc6dae76	-0.014506927
22	0xbd8a7a65	-0.06761626
23	0x3dde608b	0.10858258
24	0x3dc3ee59	0.095669456
25	0xbd8e582d	-0.06950412
26	0x3d1a48b7	0.037667003
27	0x3b792c3f	0.0038020757
28	0xbd863d98	-0.06554717
29	0xbd63b682	-0.055593975
30	0x3be20e76	0.0068986965
31	0x3dcb9298	0.0994007
32	0x3e207f0e	0.15673468
33	0xbd90f68e	-0.070782766
34	0x3dae4f32	0.08511199
35	0xbdc71be2	-0.09722115
36	0xbd3f21e3	-0.046663176
37	0x3cd77dcd	0.026305104
38	0x3d590d08	0.052990943
39	0xbd29f970	-0.041497648
40	0x3c051412	0.008122461
41	0x3e069f34	0.13146669
42	0xbd682432	-0.056675144
43	0x3d9e73d3	0.077369355
44	0xbda576b9	-0.08079285
45	0xbd14ba06	-0.03631022
46	0x3bbf243c	0.005833177
47	0x3dc411ce	0.095737085
48	0x3e2af4d4	0.16694957
49	0xbdd64494	-0.10462299
50	0x3d4f8c32	0.05067081
51	0x3da9a8e1	0.08284164
52	0x3d85b022	0.06527735
53	0x3d21aa00	0.039468765
54	0x3dbafbbf	0.09130048
55	0x3d6283dc	0.055301532
56	0xbcaa4ed7	-0.020789547
57	0xbd7acdb0	-0.061231315
58	0x3d8712f5	0.06595413
59	0x3b1925a5	0.0023368385
60	0xbd37ce43	-0.04487444
61	0x3cd02427	0.025407864
62	0x3e187dbf	0.14891718
63	0x3d9d1c27	0.07671385
64	0x3e063103	0.13104634
65	0x3d7c9328	0.061663777
66	0xbc87b7fd	-0.016567225
67	0x3dae9b07	0.08525663
68	0x3bd07f96	0.0063628657
69	0x3d5efbef	0.05443948
70	0xbdacff67	-0.08447152
71	0xbd598432	-0.053104587
72	0xbb6507d8	-0.0034947302
73	0x3d4307eb	0.047614973
74	0xbd8035c4	-0.06260255
75	0xbcb37653	-0.021907007
76	0xbd415e99	-0.047209356
77	0x3d8f6ef5	0.07003585
78	0x3db5b2a0	0.08871961
79	0xbc363a0d	-0.011122239
80	0xbd954c94	-0.07289997
81	0x3b39a4bc	0.002832695
82	0x3d59cdbd	0.053174723
83	0xbd5b4ed9	-0.05354199
84	0xbcafb410	-0.021448165
85	0xbbe8e651	-0.007107534
86	0x3b9dba39	0.0048134592
87	0x3de5f4d8	0.11228341
88	0xbd9345ad	-0.07191024
89	0x3da96d51	0.082728036
90	0xbdab9e32	-0.08379783
91	0xbd327eb7	-0.043577876
92	0x3e0efc16	0.1396335
93	0x3c92e5c2	0.017931823
94	0x3d0bc2eb	0.034121435
95	0xbe011249	-0.12604631
96	0x3dc8828f	0.09790527
97	0x3cbb4c48	0.022863522
98	0x3d10daea	0.035365023
99	0xbd10c3ff	-0.035343166
100	0x3ca4a310	0.020097286
101	0x3d9d1ba5	0.076712884
102	0x3d4fc744	0.050727144
103	0x3d68a006	0.056793235
104	0xbcbe69a1	-0.023243727
105	0xbd995bc1	-0.07488204
106	0x3d906265	0.07050017
107	0xbd254b0e	-0.04035478
108	0xbe8f799b	-0.28022465
109	0x3bfc4b54	0.0076994095
110	0xbdda0c86	-0.1064692
111	0x3d0f30f5	0.0349588
112	0x3d4f835c	0.050662383
113	0xbe07a1b9	-0.13245286
114	0x3dcff8d2	0.101548806
115	0xbc0afdd4	-0.008483369
116	0xbcdb73fe	-0.026788708
117	0xbb2d1950	-0.0026412793
118	0x3be75725	0.007059949
119	0x3d7ba609	0.06143764
120	0x3c99e75d	0.01878708
121	0xbc553cd5	-0.013014992
122	0xbd855e78	-0.06512159
123	0x3dd7478b	0.105116926
124	0x3d8b41bb	0.067996465
125	0x3d88e7d6	0.06684844
126	0x3dd4893c	0.10377738
127	0x3b4e3805	0.0031466496
128	0x3da85fdc	0.08221409
129	0xbd39f3b8	-0.045398444
130	0x3d6e3a04	0.058160797
131	0x3d732b40	0.05936742
132	0x3d0bc379	0.034121964
133	0x3dcd433e	0.10022591
134	0x3d9c32b5	0.07626859
135	0x3d9bd760	0.07609439
136	0x3cf209a1	0.029545607
137	0xbd121aa2	-0.03566993
138	0xbd8a0e3e	-0.06740998
139	0xbd91a1a1	-0.071109064
140	0x3ccb8291	0.024842532
141	0xbca1ea8d	-0.019765163
142	0x3d491ca4	0.04909958
143	0x3dc2a126	0.09503393
144	0x3d7aa491	0.0611921
145	0x3d80411a	0.06262417
146	0xbd58956d	-0.05287688
147	0xbdc4f8cc	-0.09617767
148	0xbd55c0d2	-0.05218584
149	0xbd953ae4	-0.07286623
150	0xbd0b328c	-0.033983752
151	0x3c26449c	0.010148194
152	0x3d8c38e1	0.06846786
153	0xbd6b5919	-0.057458017
154	0xbd5f7836	-0.054558
155	0xbd799f95	-0.060943205
156	0x3d93f38a	0.07224186
157	0x3d5ac8c3	0.053414118
158	0xbc0602ce	-0.00817938
159	0x3da824d1	0.08210147
160	0x3cb3c250	0.021943241
161	0xbac7b8fb	-0.0015237624
162	0xbd69308e	-0.05693107
163	0xbdedf614	-0.11619201
164	0xbde53f0c	-0.11193666
165	0x3e235b2e	0.15952751
166	0x3cef8983	0.029240375
167	0xbd6ac8d7	-0.057320442
168	0x3d3f5da8	0.046720177
169	0xbc379311	-0.011204497
170	0x3d5f714a	0.0545514
171	0x3c4487b4	0.011995245
172	0xbe246181	-0.1605282
173	0xbd305e6c	-0.043058798
174	0x3d0746ab	0.03302638
175	0x3d59f67a	0.053213574
176	0x3e1896bc	0.1490125
177	0x3d68bfe1	0.056823615
178	0xbaa72b74	-0.0012754039
179	0xbde068cb	-0.10957488
180	0x3d914539	0.07093281
181	0xbcdfddd5	-0.027327457
182	0x3c78febf	0.015197455
183	0xbca9a72b	-0.020709595
184	0x3db7ebae	0.08980499
185	0xbda799fc	-0.08183667
186	0xbc96a2f5	-0.01838825
187	0x3dc481e0	0.09595084
188	0x3cffec6f	0.03124067
189	0xbd32aea1	-0.04362357
190	0xbd75235c	-0.059848174
191	0x3db9bc7b	0.09069153
192	0xbd41034b	-0.04712228
193	0xbd8b417c	-0.067995995
194	0xbd27fe3f	-0.041013952
195	0xbdf88229	-0.12134201
196	0xbda81e51	-0.082089074
197	0xbdbb4ee5	-0.09145907
198	0x3df36ba1	0.11885763
199	0x3cfdb892	0.030971799
200	0xbce47b1d	-0.027890736
201	0x3def018a	0.116702154
202	0x3d4c0535	0.049809653
203	0xbd3363f0	-0.04379648
204	0x3cbe805d	0.023254568
205	0x3decfdd4	0.115718514
206	0x3c8fbe83	0.017546898
207	0x3c14038a	0.009034047
208	0x3d163e11	0.036680285
209	0x3dad4e33	0.08462181
210	0xbd811b5d	-0.06304047
211	0xba4fdf99	-0.0007929742
212	0xbdbef1a9	-0.09323437
213	0x3db63da8	0.08898479
214	0x3e0a599c	0.13510746
215	0x3c001b5f	0.007819026
216	0x3be22f5c	0.0069026183
217	0xbcce2b90	-0.025167257
218	0xbd31f48e	-0.043446116
219	0x3d7b2ae5	0.061320204
220	0x3da562ca	0.08075483
221	0xbd84afa4	-0.06478813
222	0x3e06fd1a	0.13182488
223	0xbd10cbfc	-0.035350785
224	0x3d13f8b7	0.036125865
225	0x3d326daa	0.043561615
226	0xbc853654	-0.016261257
227	0xbd4ae9b3	-0.04953928
228	0x3dca0c57	0.09865635
229	0x3da7bb48	0.08190018
230	0x3db78e10	0.08962643
231	0x3bbd73eb	0.0057816408
232	0xbda037e1	-0.07823158
233	0x3d19991c	0.037499532
234	0x3d558192	0.05212552
235	0x3da8eee5	0.082486905
236	0xbea559dd	-0.32295123
237	0x3ceed4de	0.029154237
238	0xba6f2697	-0.0009122877
239	0xbddfab19	-0.10921306
240	0x3ccfe0b2	0.025375698
241	0x3abcaac3	0.0014394153
242	0x3dd08ad1	0.10182727
243	0x3dc1015d	0.09424088
244	0xbd0e20bd	-0.03469919
245	0x3d337057	0.043808307
246	0xbc96bb10	-0.018399745
247	0xbd769ae4	-0.06020631
248	0x3de8907f	0.113556854
249	0xbcbbe950	-0.0229384
250	0x3cc4fd37	0.024046523
251	0x3d42ad15	0.047528345
252	0x3db17c34	0.08666268
253	0xbcddf2d7	-0.027093334
254	0x3d883262	0.06650235
255	0xbd4d094a	-0.050057687

convhead2.weight f4 [65, 64, 1, 1]
0	0x3d196d20	0.037457585
1	0x3d858319	0.065191455
2	0x3d942afd	0.07234762
3	0x3e38717e	0.18012044
4	0x3c90dcd4	0.017683424
5	0x3d0b7f3e	0.034056894
6	0x3d68641e	0.056736104
7	0xbd3151b5	-0.043290813
8	0x3ca3e3da	0.020006109
9	0x3dde4d40	0.10854578
10	0xb9970fd0	-0.00028812746
11	0xbcfc0b53	-0.030767119
12	0xbcab1cea	-0.02088781
13	0xbdd5ab5c	-0.10433075
14	0xbaa0dbac	-0.0012272499
15	0x3dc4bb2f	0.09606015
16	0x3dbb826d	0.09155736
17	0xbc847d3e	-0.016173001
18	0xbe3957f7	-0.18099962
19	0xbd83a7e6	-0.064285085
20	0xbd1c0eac	-0.03809993
21	0x3e4b1c2b	0.19834964
22	0xbe2171fb	-0.15766136
23	0xbc93e97d	-0.018055672
24	0xbc89a6a4	-0.016803093
25	0xbe2d7b91	-0.16941668
26	0x3bc1ced6	0.0059145493
27	0xbcbfc101	-0.023407461
28	0xbc54253a	-0.012948329
29	0x3e3478b8	0.17624176
30	0xbe087640	-0.13326359
31	0x3d4dd739	0.05025408
32	0x3e16252a	0.14662614
33	0x3bd3d3e6	0.0064644692
34	0x3d0df6fe	0.03465938
35	0xbdace911	-0.084428914
36	0xbdf3d298	-0.11905402
37	0x3d91cea9	0.071194954
38	0xbdaeb4d8	-0.08530587
39	0x3cba3b45	0.02273334
40	0x3b8e7db5	0.0043484815
41	0xbd209195	-0.039201338
42	0xbd833ea8	-0.06408435
43	0xbd10c1d8	-0.035341114
44	0x3dcdc6e3	0.100477
45	0xbd96f2e7	-0.07370549
46	0x3d3b193b	0.04567836
47	0xbbd24c27	-0.0064177695
48	0x3cfced4c	0.03087487
49	0xbd3e6fb1	-0.046493236
50	0xbd8b6dbb	-0.06808039
51	0x3dd2cadf	0.10292601
52	0xbd9a0563	-0.07520559
53	0x3db88be4	0.09011057
54	0xbdc0c286	-0.094121024
55	0xbdc7e089	-0.097596236
56	0xbb4ee959	-0.0031572192
57	0x3d0457ea	0.032310404
58	0x3cf136c9	0.029445069
59	0x3dbb3f98	0.09142989
60	0xbd07e14f	-0.033173855
61	0x3c5957c8	0.013265558
62	0x3d242fb1	0.040084545
63	0x3c36af0f	0.011150136
64	0xbb36919b	-0.0027857784
65	0xbd152417	-0.03641137
66	0xbd96ca49	-0.073628016
67	0x3ceb2f72	0.028709147
68	0x3dcccc58	0.09999913
69	0x3e17530c	0.14777774
70	0x3cc6d0bb	0.024269452
71	0xbe4e2677	-0.2013186
72	0xbe0c146a	-0.13679662
73	0x3d3202c0	0.043459654
74	0xbdd423b6	-0.10358374
75	0x3e068283	0.13135724
76	0xbafc71c2	-0.0019259977
77	0x3caacce2	0.020849649
78	0xbababe0a	-0.001424731
79	0x3ceee4bb	0.029161802
80	0x3d15965b	0.036520343
81	0x3e3558fe	0.17709729
82	0x3cd0a405	0.025468836
83	0xbe3828d8	-0.1798433
84	0xbdf55129	-0.11978371
85	0xbcc1485d	-0.023594076
86	0xbdabc1ef	-0.08386599
87	0x3c14df81	0.009086491
88	0xbbd76cbe	-0.0065742424
89	0x3cb7e7d0	0.022449404
90	0xbd2c3f3a	-0.042052485
91	0x3dba5819	0.090988345
92	0x3d667714	0.056265905
93	0x3e18fe85	0.14940841
94	0xbc22400a	-0.009902963
95	0x3be942be	0.007118552
96	0x3dbd6e9c	0.09249613
97	0xbdc870e4	-0.09787157
98	0xbcaa4b33	-0.02078781
99	0xbd328bd8	-0.043590397
100	0x3cf02223	0.029313153
101	0x3dd71896	0.10502736
102	0x3d706028	0.05868545
103	0xbdd0dd12	-0.10198416
104	0xbe330bc5	-0.17484958
105	0x3dcc2c5d	0.09969399
106	0xbd95177b	-0.07279869
107	0x3c851f14	0.01625017
108	0xbd8f8a19	-0.07008762
109	0x3d85b7eb	0.0652922
110	0x3b0f9c38	0.0021913182
111	0xbd825795	-0.06364361
112	0xbdba9eab	-0.09112295
113	0x3c95176d	0.018199647
114	0x3c41fedc	0.011840548
115	0x3d086d3e	0.033307306
116	0x3df189e0	0.11793876
117	0xbc149973	-0.009069788
118	0xbd251511	-0.040303294
119	0xbdd9e471	-0.10639275
120	0xbcc46348	-0.023973122
121	0xbd56cc67	-0.052441027
122	0x3d9b4961	0.07582355
123	0x3d099442	0.033588655
124	0x3d9afcc3	0.07567742
125	0xbe4bf715	-0.19918473
126	0x3e1cc802	0.15310672
127	0xbdb36336	-0.08759157
128	0xbd567c88	-0.052364856
129	0x3e02c2bb	0.12769596
130	0x3da0ebbd	0.078574635
131	0xbcd35557	-0.02579753
132	0xbc1fcef3	-0.00975393
133	0xbda275e9	-0.07932646
134	0x3ce059df	0.027386604
135	0x3d122a6d	0.03568499
136	0xbcbb56a5	-0.022868464
137	0xbc0a9361	-0.008457989
138	0x3dfaa337	0.12238162
139	0xbd4c8509	-0.04993156
140	0x3d5d622f	0.054048713
141	0x3dae33dc	0.08505985
142	0xba39d407	-0.00070887845
143	0x3d2bc5ad	0.041936565
144	0xbaba7258	-0.0014224751
145	0xbd87ea92	-0.066365376
146	0x3d894f86	0.06704621
147	0xbcee5809	-0.029094713
148	0xbd28ea62	-0.04123915
149	0x3b4b9ba2	0.0031068106
150	0x3db40d42	0.08791591
151	0x3dc12d3d	0.09432457
152	0x3daa2fb2	0.083098784
153	0xbd4ecbc3	-0.05048729
154	0x3dbcad3d	0.0921273
155	0xbceed9f1	-0.029156657
156	0xbd47901b	-0.048721414
157	0xbc19179b	-0.009344007
158	0x3db3381a	0.08750935
159	0xbacf6012	-0.0015821478
160	0xbd096702	-0.0335455
161	0xbdeee74a	-0.11665209
162	0x3e026119	0.12732352
163	0xbd505dc9	-0.05087069
164	0x3bbb0d5c	0.0057083797
165	0x3e35ebac	0.17765683
166	0xbd90858f	-0.07056724
167	0xbdb5a9a1	-0.08870245
168	0xbd184ee9	-0.03718463
169	0xbd76ba69	-0.06023637
170	0xbcd99b51	-0.026563318
171	0x3d9fc597	0.07801359
172	0xbd83eebe	-0.06442021
173	0xbdecde36	-0.11565821
174	0x3cd231b0	0.025658458
175	0x3e20af04	0.15691763
176	0x3dc15794	0.09440532
177	0xbd870e4c	-0.06594524
178	0xbd9c4a80	-0.07631397
179	0xbd4f99a6	-0.05068364
180	0x3de35e22	0.11101939
181	0xbdfb25a0	-0.12263036
182	0x3cabdbb8	0.020978794
183	0x3e1ee67c	0.1551761
184	0xbce54f23	-0.027991837
185	0xbc61c279	-0.013779276
186	0x3cbed396	0.023294251
187	0x3da62f26	0.081144616
188	0xbe25743e	-0.16157624
189	0xbde1ef1e	-0.11031936
190	0x3e1d5191	0.15363146
191	0x3afa4fe9	0.0019097301
192	0x3dd63698	0.10459632
193	0xbd7e7214	-0.062120512
194	0xbb7cbcdf	-0.0038564724
195	0x3df9f01d	0.12204001
196	0xbcb3b315	-0.021935979
197	0xbe3cd16b	-0.18439262
198	0x3dc36c90	0.09542191
199	0xbd95d306	-0.0731564
200	0xbc7089ab	-0.01468126
201	0xbdfef96f	-0.124499194
202	0xbd33517d	-0.043778885
203	0xbcac99f1	-0.021069499
204	0x3dcb2c61	0.09920574
205	0x3e24f33a	0.16108409
206	0xbde01beb	-0.10942825
207	0x3e177c7c	0.14793581
208	0xbd956575	-0.07294742
209	0xbe2bc2d5	-0.16773541
210	0x3d188269	0.037233744
211	0xbce5a59b	-0.028033068
212	0x3cdd3e80	0.027007341
213	0x3da66932	0.08125533
214	0xbc073b2d	-0.008253855
215	0xbe3b600b	-0.18298356
216	0xbd0536be	-0.03252291
217	0xbd8eb8a0	-0.06968808
218	0x3dde5be4	0.108573705
219	0x3e1020fe	0.14075086
220	0x3da620a8	0.081116974
221	0x3de416f0	0.111371875
222	0x3e148be9	0.14506496
223	0x3d9cb0eb	0.07650932
224	0xbd22c377	-0.03973719
225	0xbc65456b	-0.013993601
226	0xbe389b76	-0.18028054
227	0x3d51b910	0.05120188
228	0x3e0bd7e2	0.13656572
229	0x3c96db64	0.01841516
230	0xbdc56c72	-0.09639825
231	0x3d5309c2	0.051522978
232	0xbd1e1e24	-0.038602963
233	0xbdd3402e	-0.10314976
234	0xbd8e31e7	-0.06943112
235	0x3d11f0da	0.035630085
236	0x3e0ea72d	0.1393096
237	0x3d7120fb	0.058869343
238	0x3de2f93a	0.110826924
239	0xbda59666	-0.08085327
240	0x3d582689	0.052771125
241	0xbce17011	-0.027519258
242	0xbb393f74	-0.002826658
243	0x3c38c314	0.011276979
244	0xbc7ace83	-0.015308025
245	0xbdf01f1b	-0.11724683
246	0xbc42f555	-0.011899312
247	0x3d8bad5c	0.06820175
248	0xbdd50d3b	-0.10402914
249	0xbdecc9bd	-0.11561916
250	0x3de0e1cf	0.109805696
251	0xbdcc0ddd	-0.09963582
252	0x3d8bdfeb	0.06829818
253	0x3ca05b9c	0.019574933
254	0x3d63c62a	0.055608906
255	0x3d82c19e	0.06384586
