aliked_step1.onnx (onnx, 82965 bytes, 12 tensors)

block2.downsample.weight f4 [32, 16, 1, 1]
000000 cd c4 81 bd 45 01 27 3e 63 8a df bc 81 e1 04 3e
       -0.06336365 0.16309078 -0.027287668 0.12976648
000010 44 b8 6f be d9 79 15 be a1 71 d4 bc 71 5a 3a be
       -0.23410136 -0.14597262 -0.025933089 -0.18198563
000020 46 ce 72 bd 62 51 72 bc a4 3a 2c 3e 4f 92 cd bd
       -0.05927875 -0.014789911 0.16819245 -0.10037672
000030 b8 75 7b be 2f 0a ee 3d ef b2 2a 3e 36 5e ea 3c
       -0.24556625 0.11623036 0.1666982 0.028609376
000040 ce 65 86 bc e5 8c 5d bc f0 74 c5 3d 4e 75 8e 3d
       -0.016405966 -0.013522361 0.09641445 0.06955968
000050 91 58 1f be 91 52 90 bd 43 64 27 3e b3 ca 3a 3d
       -0.15561129 -0.07046998 0.1634684 0.045603465
000060 29 ea 53 be 69 2d 6b bd 64 c5 40 3e 80 9b 3a be
       -0.20694794 -0.057416353 0.18825299 -0.18223381
000070 31 32 26 3e dd ed 70 3d f0 f6 9b 3e 24 ad 59 bd
       0.16230084 0.058820594 0.30461836 -0.053143635
000080 d8 a3 64 bd 79 ae 4b bd bc 35 fe bd e9 4d 02 3e
       -0.055820316 -0.049726937 -0.12412593 0.12725033
000090 01 ce 9e be b9 98 24 3e a6 47 0c 3e 9e 78 e3 3d
       -0.31016544 0.16073884 0.13699207 0.1110699
0000a0 77 4d 57 be db a2 9f be 5e ee f4 3d 76 3e a7 3e
       -0.21025644 -0.31178936 0.119595274 0.3266484
0000b0 79 f8 ac 3c 52 29 8e be de 1c 3a 3c dc 01 48 bd
       0.021114575 -0.277659 0.011359422 -0.0488299
0000c0 1f b2 07 3d 2b b7 25 3e a9 13 ad 3d 22 49 a2 3d
       0.033128854 0.16183154 0.084510155 0.07924105
0000d0 91 8f 57 bd 00 98 27 bd f1 27 e8 3d ac c3 a1 3d
       -0.05262715 -0.040916443 0.11335743 0.078986496
0000e0 6f 13 2f bd 1b c3 89 bc 93 6c dc bd 69 9e 8a bd
       -0.042743143 -0.016816666 -0.107628964 -0.067684956
0000f0 44 67 8b 3e df 37 f9 bd 95 54 8a bd 6c 99 83 3d
       0.27227223 -0.1216886 -0.06754414 0.06425747
000100 f0 ee 13 3e 46 16 bb bc 7a cf ef 3b 78 b8 01 bd
       0.14446616 -0.02283777 0.0073184343 -0.031670064
000110 0f 04 af bc 20 23 97 bc ce d2 23 bd 1f 39 76 be
       -0.02136424 -0.018449366 -0.03999596 -0.24045227
000120 4f b4 b0 3d dc 25 0a 3e 28 61 e2 bd b1 dd d9 bd
       0.08628141 0.13491005 -0.11053687 -0.106379874
000130 ee a7 4b be 7d dc 90 3e 74 e3 82 bd dc 0b 7f 3d
       -0.19888279 0.2829322 -0.063910395 0.06226717
000140 da 7f 9d bd c3 23 16 bd 8e 23 54 3e 8a 77 bb bd
       -0.076904014 -0.0366552 0.20716688 -0.0915366
000150 74 76 27 bd c0 4f 2a 3e 20 32 4e 3d 6f 6a f8 bd
       -0.04088445 0.16631985 0.05034077 -0.121296756
000160 5e d9 cf bd c9 1f b7 bd b2 97 02 bc 21 7e 2c 3e
       -0.101488814 -0.089416094 -0.007970737 0.1684499
000170 89 ff d3 bd b5 d1 c3 bc 02 6e 22 be 8b 84 06 be
       -0.10351474 -0.023903707 -0.15862277 -0.13136499
000180 ad 12 ff 3d 33 a2 1b 3e 15 83 5c 3d 33 36 07 3e
       0.12454734 0.15198593 0.053835947 0.13204269
000190 67 67 b6 bd 86 8c 03 bd 4c c6 04 3e 2e 1d a4 bd
       -0.08906441 -0.032116435 0.12966269 -0.08013378
0001a0 56 9b d7 bd bb 90 76 bd 16 22 21 3d 42 50 d9 3d
       -0.10527675 -0.06019662 0.039339148 0.10611011
0001b0 84 ed 8e bd d5 3a 1b bc 38 49 4a 3c 8c 9d 4b be
       -0.06978896 -0.009474476 0.012346558 -0.19884318
0001c0 70 4e 2b be 4f 09 8e 3e 0e 99 a8 3d f7 a5 04 be
       -0.1672914 0.27741477 0.08232318 -0.12953936
0001d0 5e 76 fa bd 12 b8 cc 3d 75 0d 74 3c 1b 01 a8 be
       -0.12229608 0.09996046 0.0148957865 -0.32813343
0001e0 e2 b8 fc bd 4f c3 17 3d 1f 9b b6 3d 68 15 0b 3e
       -0.12339951 0.037051495 0.08916306 0.13582385
0001f0 fa 93 11 be 92 19 12 be c6 15 6e 3b a1 ca a3 be
       -0.14216605 -0.14267567 0.0036328896 -0.3199053
000200 b2 75 87 3d 59 35 21 3d 49 e5 fa bb 63 2e 83 3d
       0.066142455 0.039357517 -0.0076567275 0.06405332
000210 53 8b 72 3d 73 e7 7a 3d f9 c0 90 3d a2 33 e4 3c
       0.0592149 0.061255883 0.070680566 0.027856652
000220 0f 45 12 be bb 4e 5c 3e 27 80 9b bd ef b1 a9 be
       -0.14284156 0.21514408 -0.075928025 -0.33143565
000230 4d 82 11 3e 6d 95 53 3d 68 05 5a 3d 9b 93 70 be
       0.14209862 0.051656175 0.053227812 -0.23493807
000240 68 e8 50 be 79 1c f2 3d 13 1a b3 bc 55 84 0c be
       -0.20401156 0.11821837 -0.02186302 -0.13722356
000250 2a 57 5d bb 04 69 1c 3e c9 77 ce 3c 52 c2 1c 3e
       -0.0033773878 0.15274435 0.025203602 0.15308502
000260 0a b6 1a bd 91 1b ba 3c 7f b9 b5 3d d5 fe 2a bd
       -0.037771262 0.022718223 0.08873271 -0.041746933
000270 e1 e6 4f 3d 36 d4 fd bd 79 ae 40 3d 8d 42 84 be
       0.050757293 -0.12393992 0.04704139 -0.25832024
000280 9a 13 8b 3d 92 3f ff bc bd 0e 72 bd 63 a5 a8 3c
       0.06790848 -0.031158242 -0.059096087 0.020586675
000290 6b 68 67 3d 11 1d bb bd c4 40 25 be bd 27 e7 bb
       0.056496065 -0.09136403 -0.16137987 -0.0070542977
0002a0 8b 34 0b be a1 25 83 3b 1b 28 ca 3c 84 e8 8b be
       -0.13594262 0.0040022884 0.024677327 -0.27325833
0002b0 25 43 a7 3e a6 19 35 be 85 d5 b8 bc 2d f3 7e 3e
       0.32668415 -0.17685565 -0.022562752 0.24897452
0002c0 b6 1e 28 3e d3 99 ae bd fd 9a 92 3e ae bb 07 bd
       0.16417965 -0.085254334 0.28633872 -0.03313797
0002d0 4f fc df bd 0b c8 b2 3e 70 93 41 be 58 71 9a 3e
       -0.10936796 0.34918246 -0.18903899 0.301646
0002e0 6a af b2 be 90 79 a4 be 19 04 69 3d 2a 86 a8 3e
       -0.34899455 -0.32123995 0.056888673 0.3291486
0002f0 f1 79 d8 bd 6a 3f 82 be 85 7a de be da 33 24 3d
       -0.105701335 -0.25439006 -0.4345285 0.040088512
000300 97 9c b6 3d 23 6b 16 be e3 3d 22 3c c4 fa 67 bd
       0.08916586 -0.14689307 0.00990245 -0.056635633
000310 8f 18 f6 bc e6 c9 de 3d bd 9d a5 bb 7b d7 c9 3d
       -0.030041007 0.10878353 -0.0050542043 0.09855553
000320 99 c9 f1 3c dd 43 f2 ba 42 05 c3 3d 4d a4 4d 3e
       0.029515075 -0.001848336 0.09522487 0.20082207
000330 6c fb 09 3e 24 33 84 be 93 af 1f be 9f 5b df bd
       0.13474816 -0.25820267 -0.1559432 -0.10906147
000340 7a 3f 3d be 90 9e 3e 3e 32 71 6d 3e 41 99 90 3e
       -0.18481246 0.18615174 0.23187712 0.28241923
000350 75 4e 4b bd ad 4d 84 3e df fb 70 bd c3 80 35 3c
       -0.04963537 0.25840512 -0.058833953 0.0110780625
000360 74 8e 89 3d 11 23 fd bc c1 0e e2 3c e3 e2 dc 3a
       0.06716624 -0.03090051 0.027594926 0.0016852285
000370 17 46 8c 3d 81 93 11 be a5 03 33 3c 5b 54 cf be
       0.06849306 -0.14216425 0.010926162 -0.40494046
000380 ad ed 2d 3e 29 ee cd 3d 11 3a 2e be 3b 6e 1d 3e
       0.16985197 0.10055191 -0.17014338 0.15374081
000390 39 05 3b 3d 9d 1d 9e bd 5b 74 50 3c e5 fa 80 3e
       0.045659278 -0.07720492 0.012723054 0.25191417
0003a0 bd cf ca 3d 86 2d ab bd fd 3e 16 3e a1 72 91 3e
       0.09902904 -0.08358292 0.14672466 0.28407767
0003b0 30 ee 79 be c6 c3 78 be ca b1 7d bd 21 58 d4 bc
       -0.24407268 -0.24293432 -0.06193713 -0.02592093
0003c0 ad 56 86 3e f2 8d fb bc bc 69 1f bd f2 88 68 3e
       0.26238003 -0.030707333 -0.038919196 0.2270849
0003d0 1c 5b e2 bd 0c bf cf 3d a8 3a a2 3d 05 e7 ef 3d
       -0.11052534 0.10143861 0.07921344 0.11713985
0003e0 5c e4 88 3d 77 8d 88 be 88 fb 53 3b 9f 09 26 3f
       0.06684181 -0.2667043 0.003234597 0.6485843
0003f0 5d be 28 bf 55 ad e4 bd ac d1 0f bd 55 41 89 be
       -0.6591547 -0.11165873 -0.035112068 -0.26807657

block2.downsample.bias f4 [32]
000000 31 aa 30 bf 1c f3 80 be 25 29 0a bf 53 ed 26 be
       -0.6900969 -0.25185478 -0.5396903 -0.1630147
000010 2d 58 8e be c9 8b 3e be eb b6 7c bc 0f cd 05 bf
       -0.27801648 -0.18608011 -0.01542447 -0.5226602
000020 1c 3e bd 3e 1d f0 9e bc 56 24 12 3e 4f c9 09 bf
       0.36961448 -0.019401604 0.14271674 -0.538228
000030 51 e9 e4 3e 80 0d df bd 27 b9 78 3e 95 29 2a bc
       0.44709256 -0.10891247 0.2428938 -0.0103858905
000040 6d 35 60 be 71 16 cc 3c b2 1c 82 3e 68 69 b6 be
       -0.2189538 0.024913045 0.25412518 -0.35627294
000050 16 a0 7c 3e 9a ec a9 be 7b 09 38 3d 60 18 ba be
       0.24670443 -0.33188325 0.044930916 -0.36346722
000060 24 07 f4 be fb 77 9f be 4f 4c ef be f4 1a 52 be
       -0.47661698 -0.31146225 -0.46737906 -0.20518094
000070 02 84 b7 bd fa 68 f7 3c 9e 76 f1 be ce 63 1c 3d
       -0.08960725 0.030201424 -0.4716081 0.03818112

conv1.weight f4 [32, 16, 1, 1]
000000 29 99 0c bd f9 bb 98 bd 85 28 ce 3a 88 7b 7c 3b
       -0.034325752 -0.07457728 0.0015728628 0.0038525779
000010 f3 09 9b bb ba b6 eb 3b 36 f7 94 bc c1 e7 9d bb
       -0.0047314106 0.0071934136 -0.018184286 -0.004818887
000020 de 8f e4 bd 11 cd ab 3d 7e 3f 95 3c d6 3b 13 3e
       -0.11160253 0.08388723 0.018218752 0.14378294
000030 01 00 72 3d 6b 59 d3 bb 71 89 b1 3d ea b6 03 bd
       0.059082035 -0.0064498684 0.08668793 -0.032156862
000040 10 8e 41 bc 3f 5e 75 bd d5 5f 18 3c 2d f5 6f 3b
       -0.0118136555 -0.059904333 0.009300192 0.0036614642
000050 b9 69 b9 3d 44 9d f7 bc da ca e4 3b aa 5c 97 bc
       0.09053368 -0.030226357 0.0069821896 -0.018476803
000060 f4 fd ff bc 00 20 db 3c 92 c2 22 bd 6c cf 19 3e
       -0.031249024 0.026748657 -0.039736338 0.15020531
000070 10 13 95 bd 6d 0f 9f 3d bf d8 ae bd 82 f5 ec bd
       -0.072790265 0.07766614 -0.08537435 -0.115702644
000080 5b fb c9 bd 0a 77 fc bc 4f fc 47 3b c9 bf 02 39
       -0.098623954 -0.030818481 0.0030515378 0.00012469212
000090 eb a1 02 bd 16 d4 9f 3c ba f0 a6 ba e6 28 50 bd
       -0.0318927 0.01951031 -0.0012736537 -0.050820254
0000a0 5a b0 2c bd 84 a8 ca 3d b8 b6 e8 3b 3b 87 2a 3d
       -0.04216037 0.09895423 0.00710186 0.041632872
0000b0 d8 34 01 3e 4a 56 48 bd f6 5e 00 3c 18 9a fe 3d
       0.12617815 -0.048910417 0.00783514 0.12431735
0000c0 60 7d 99 3d 5f 7a ac bd bc b6 bb bc 8b b0 91 3d
       0.074946165 -0.08421778 -0.022914283 0.07113751
0000d0 15 df 46 3d 9e 70 73 bd 5a 3f b8 3d 1a 48 d1 bd
       0.04855259 -0.059433572 0.08996458 -0.102188304
0000e0 32 af e4 bc 9f 9d 0e be 2c 47 09 bd a8 39 4e bd
       -0.02791557 -0.13927315 -0.03351514 -0.050347954
0000f0 5a ac 17 3e a6 1f c5 bd 72 09 ca 3d 39 d9 79 3d
       0.1481184 -0.09625177 0.09865083 0.060998175
000100 45 eb 39 bd a5 18 a3 3c 1a d2 7e 3d 5e 41 1a bd
       -0.045390386 0.019909212 0.062212087 -0.037659995
000110 32 75 6e 3d e7 24 92 bd d5 3b 14 3d c5 71 15 3d
       0.058217235 -0.07135945 0.036189873 0.036485452
000120 a7 ae e5 3d 2c b0 30 bd 95 6a 12 bd 14 51 06 be
       0.11214953 -0.04313676 -0.035746176 -0.13116866
000130 16 bd d2 3d b6 3e 7a 3c 48 23 b6 3d 98 16 06 3d
       0.102899715 0.0152737405 0.08893448 0.03273639
000140 fc ac 4b 3d 65 1d 5a bb 3f 9c b2 bd 5d 4d a7 39
       0.049725518 -0.003328168 -0.08721208 0.00031910362
000150 4e 33 fa bc 08 5c 1a bd 86 81 d2 3d 2f 68 5a 3d
       -0.030542042 -0.037685424 0.10278611 0.053322013
000160 13 e4 7d bd cc 98 ea bc 19 85 7f bd c8 98 7a 3d
       -0.061985087 -0.028637312 -0.06238279 0.06118086
000170 35 6c b9 3d 41 4b c9 bc 04 45 95 3d 27 3c ef 3d
       0.09053842 -0.024572017 0.07288554 0.11681395
000180 72 45 4a 3a 84 f5 a2 bd f5 26 61 3d a3 04 5e 3d
       0.00077160366 -0.07956985 0.054968793 0.05420364
000190 79 3c 94 3b 10 b7 f5 bd a1 d3 09 3e bb d8 e5 3c
       0.0045238105 -0.11997807 0.13459636 0.028057447
0001a0 50 cc ae bd 0c 7f 09 be 97 eb 05 3d f4 c3 09 be
       -0.08535063 -0.13427371 0.03269538 -0.13453656
0001b0 4d 19 80 3d 8d fd f8 bb 81 d7 e9 3c 6f 47 11 3e
       0.06254826 -0.007598585 0.028545143 0.14187406
0001c0 f1 86 ef 3d 06 cf 91 bd c1 30 d9 3d c0 27 46 bb
       0.1169566 -0.07119565 0.10605002 -0.0030236095
0001d0 67 f1 a1 bd 8e 73 bb bd 39 3a 84 3d a8 35 8f bc
       -0.07907372 -0.091529 0.064564176 -0.01748164
0001e0 83 03 55 bd b4 06 e4 bc 9a f3 a6 3d db 07 0b 3e
       -0.052005302 -0.027835228 0.08151932 0.13577215
0001f0 dc cc bf bd 73 1d 03 be 06 10 c0 bd 6d a1 77 bc
       -0.09365246 -0.12804203 -0.09378056 -0.0151141705
000200 eb c0 3e 3c 51 b4 1a bd 38 ac a1 3c 7f d0 b7 bc
       0.011642675 -0.03776962 0.01973544 -0.022438286
000210 ac 3e 05 bd 89 25 53 3d cd 22 9c 3d ee 56 e7 bb
       -0.03253047 0.05154947 0.07623825 -0.0070599234
000220 90 08 16 3d 82 6f fe bc c6 b8 77 bd f2 d5 14 be
       0.03662926 -0.03105903 -0.060478948 -0.14534739
000230 ba 61 ea 3c 2c da 06 bd e9 a1 12 3d 6b 0b 4c 3d
       0.028611053 -0.03292291 0.03579894 0.049815577
000240 df e7 cb 3c 62 4f ee 3c 38 82 90 bd c6 e9 48 bc
       0.024890838 0.029090587 -0.07056087 -0.012262767
000250 4e 9a 87 3b 8d bd 32 3d 5a 92 5a bc c5 f7 4c 3b
       0.0041382676 0.0436378 -0.013340557 0.0031275612
000260 5e 60 c6 3d 3b c7 90 bc 54 f4 95 3c 71 23 15 be
       0.09686349 -0.017673125 0.018304981 -0.14564301
000270 5f 50 75 bd a4 28 f1 bc f6 f1 da bc d8 97 ae bd
       -0.0598911 -0.029438324 -0.026726704 -0.08525056
000280 a3 2e 57 3c 93 c9 08 bd 85 2f 50 bd 62 41 3c 3d
       0.013133678 -0.03339536 -0.05082657 0.04596079
000290 f7 21 7a bc ba 62 4d 3d f7 6e a8 3d 4e 14 49 bd
       -0.015266887 0.05014298 0.0822429 -0.04909163
0002a0 98 ef 53 bc ae 67 69 3d c7 3e 07 3d 1b cd 19 3e
       -0.012935542 0.056983642 0.033018854 0.15019648
0002b0 09 f4 e1 bd 71 96 87 bd 74 17 f5 bc a4 10 35 3d
       -0.11032874 -0.06620491 -0.02991841 0.044205323
0002c0 0d 6a 06 3e f7 c3 8c 3d c0 c2 66 be 87 14 f2 bd
       0.13126393 0.06873315 -0.22535229 -0.118203215
0002d0 68 47 e0 3d 26 de 8a 3d 47 ba 5c bb 17 78 28 bd
       0.1095112 0.06780653 -0.0033680366 -0.04113015
0002e0 ce b8 f9 3d 69 ce 4d 3e cb e0 20 be 2e 92 9b 3d
       0.12193452 0.2009827 -0.15710752 0.07596241
0002f0 a6 3d 0e bd 12 5a 3d 3c f9 f9 8e 3d 9b f1 65 bd
       -0.03472676 0.011557119 0.06981272 -0.056138616
000300 93 af b9 3c 6e 6f 8b bc 63 85 88 3c e1 6b 92 3c
       0.022666728 -0.017020907 0.016665166 0.017873706
000310 c0 7f 18 3c 4b e6 82 bd 6b 7d c9 bc 4c 55 3a bd
       0.009307802 -0.06391581 -0.024595937 -0.0454915
000320 ae 27 57 bd 84 69 49 bd f9 02 ab bc f1 f7 a8 bd
       -0.052528076 -0.049172893 -0.02087544 -0.08250416
000330 ad 7c 90 bd e8 24 a6 3d a1 69 94 3d 04 de 0b 3e
       -0.0705503 0.08112508 0.072467096 0.13658911
000340 88 41 a8 3c f8 40 07 bc a7 c0 e3 3c 0e 29 13 bd
       0.02053906 -0.008255236 0.027801825 -0.035927825
000350 ed 5d 65 bc bc fb 06 3d ef b0 bf 3d 79 3f 57 3d
       -0.013999444 0.032954916 0.09359919 0.052550767
000360 d2 bb d5 3c 6b f0 91 bd f2 b4 67 3d 68 c8 c3 bd
       0.026090536 -0.07125934 0.056569047 -0.09559709
000370 14 50 7e bb ab 90 39 bd 66 a3 b7 3c 08 d1 85 bd
       -0.0038805055 -0.04530398 0.022416782 -0.0653401
000380 e7 18 b7 bc 0e 2b fc 3a c6 3c ec bc e4 c8 d8 bc
       -0.022350742 0.0019238906 -0.028837573 -0.02646298
000390 7c ce 30 3d 25 33 a0 3d 6b 8d af 3b b1 cb b9 bc
       0.04316567 0.07822255 0.0053574345 -0.022680135
0003a0 e0 71 2a 3d 8d 35 58 3d 3e 90 84 bd 2a a1 02 be
       0.041612506 0.052785445 -0.064728245 -0.12756792
0003b0 fe 36 75 3d a1 e9 19 3b 94 8d d9 3c e3 1e a2 bd
       0.059866898 0.00234852 0.026556768 -0.079160474
0003c0 0e f1 8f ba a9 75 c8 3d d8 e8 19 3e 68 2d 9e bd
       -0.0010981874 0.09788067 0.15030229 -0.07723504
0003d0 91 64 fa bd 76 aa 54 bd 87 b3 46 be c1 ed a1 bd
       -0.12226213 -0.051920377 -0.19404422 -0.07906676
0003e0 64 ad 3b 3a 90 8c a6 bd ab 8d 92 bc ff 28 0b 3e
       0.0007159321 -0.08132279 -0.017889818 0.13589858
0003f0 f3 3e 4f 3b 7d 09 01 3d 3b 68 87 3c 7b 10 45 bd
       0.0031623214 0.03150319 0.016529193 -0.04811142

conv2.weight f4 [32, 32, 1, 1]
000000 15 5d 70 3d 6e bf 4a ba 3a 74 df bd eb 03 a7 b9
       0.05868252 -0.0007734214 -0.1091084 -0.0003185564
000010 9c 9f 5d bd ab 05 7e 3e 62 de f6 3c 83 1b 4f be
       -0.054107293 0.2480685 0.030135337 -0.20225339
000020 ec 7e ae be 3e 4e 8f bd a9 55 4c bc 99 06 83 3d
       -0.3408121 -0.069973454 -0.012471595 0.06397743
000030 bd dc 14 be 42 41 3c 3d 35 99 f0 bd 5d 61 d9 bd
       -0.1453733 0.045960672 -0.11747972 -0.10614274
000040 21 b4 c1 3d 48 c8 da bd a2 15 76 bc a8 c6 bc bb
       0.09458185 -0.10682732 -0.015019806 -0.0057609864
000050 61 a7 2e 3e 3b 16 18 be f7 3d 52 bd fa 9c 0a bd
       0.17056037 -0.1485223 -0.051328626 -0.03384111
000060 1c 7b 6e 3d f2 49 de bd e2 0e 2e 3d 2c 1a a1 3b
       0.058222875 -0.10853948 0.042494662 0.00491645
000070 ac 6d 11 3c e5 2c 3d be 6d 88 ee bd cd 80 88 3d
       0.0088762455 -0.18474157 -0.11647115 0.06665192
000080 27 6a c0 3d 03 88 b1 bd ef 6e 19 3d d6 9d 69 3d
       0.09395247 -0.0866852 0.03745931 0.05703529
000090 c9 0c 0a be 9a a6 4c bd 76 0a 50 3d 00 67 96 3d
       -0.1348144 -0.04996357 0.050791226 0.073438644
0000a0 b8 54 68 3e c3 0c 08 be df 49 d4 bd b3 5c 07 3c
       0.22688568 -0.13286118 -0.10365652 0.008261847
0000b0 62 5a eb bd bc 77 9b bd ce 51 1d bc c0 2e 13 bb
       -0.114918485 -0.07591197 -0.009602023 -0.0022458285
0000c0 69 b9 5b 3e 84 02 88 3e 4b e9 c9 3d 3d a2 5d bb
       0.21457447 0.2656442 0.0985895 -0.0033818625
0000d0 a4 f0 7f bc 20 af c9 3d 2f f6 3a 3e 29 c7 db 3b
       -0.015621338 0.098478556 0.18257974 0.0067070914
0000e0 c5 20 e3 bc 6c 98 9b 3a b9 e1 cc bc f9 04 88 3d
       -0.027725587 0.0011870987 -0.025009977 0.066415735
0000f0 fa c4 3a bd 5b c9 b1 be 86 83 9d bd a0 a2 05 bd
       -0.045598008 -0.34723935 -0.07691102 -0.032625794
000100 da 4d d9 3d 86 3f c7 3d 3c c1 b2 3c e3 cd 79 bc
       0.10610552 0.09728913 0.021820657 -0.015246841
000110 3f 5c fd bd 50 f4 c2 bd 44 69 20 3c b0 9f e4 bd
       -0.1237111 -0.09519255 0.009790722 -0.111632705
000120 86 d2 86 bd cf 58 cd 3c 3a 92 fc bd 33 4a ad 3c
       -0.06583123 0.025066761 -0.12332578 0.021153545
000130 bf 3d 35 be ea 3f 42 3d c3 17 6d bd 59 0b 89 3d
       -0.17699336 0.047424234 -0.05788399 0.066916175
000140 3a a0 35 be 78 da 4e be 28 05 0b 3e d5 1b 80 be
       -0.17736903 -0.20200527 0.13576186 -0.25021234
000150 30 37 5c be 22 33 0d be 56 fd 03 bd 06 6c a3 3d
       -0.21505427 -0.13789037 -0.03222402 0.07979588
000160 4a e5 cb 3d fe cc 12 3c f2 ec 39 3d 74 22 0e 3c
       0.09955843 0.008960007 0.045391984 0.008675206
000170 1b 59 c9 3b 0b 01 45 3b 78 ec d1 bd 8e 97 10 3e
       0.0061446554 0.0030060436 -0.10250181 0.14120314
000180 3f df bf 3d be 66 01 be 65 ec d3 bc 55 05 e5 bd
       0.09368753 -0.1263685 -0.025869558 -0.11182658
000190 2b 9c 46 3e 2a ed 44 be 83 0c 44 3e db 59 3d 3b
       0.19395511 -0.19231096 0.19145398 0.002889267
0001a0 07 d6 07 bd 60 72 0e 3e 3c d6 0e 3e 89 e5 7a 3d
       -0.033163097 0.13910818 0.13948911 0.061254058
0001b0 4b 14 b5 3c 14 03 65 bd b2 58 69 3c 70 67 41 3c
       0.022104403 -0.05591114 0.014242338 0.011804447
0001c0 bb c8 2b 3e e3 d3 84 bd 4f 41 ac be 35 a2 34 ba
       0.16775791 -0.06485727 -0.33643577 -0.0006890626
0001d0 73 c3 2c bd f4 a1 75 bd 29 3b 58 3d 46 8c cb bb
       -0.042178582 -0.059968904 0.052790795 -0.0062117903
0001e0 0f 21 08 3e 63 5c 87 bd 2a 29 65 3d d9 48 b0 bd
       0.13293861 -0.06609418 0.05594746 -0.086076446
0001f0 2a 05 5a be 28 e1 6b 3e 3b 5f 19 3d 00 59 f1 3d
       -0.21291032 0.23035109 0.037444334 0.117845535
000200 19 43 bc bc 20 b6 b4 3c e6 d6 9e 3d f1 22 ad 3d
       -0.022981213 0.0220595 0.077558324 0.0845393
000210 e0 42 1f be 35 6c bb bd 40 1e a3 3d de 07 c5 3d
       -0.15552855 -0.09151498 0.07964754 0.09620641
000220 35 c4 41 bd 48 63 94 bd 8d 36 bf 3d b1 c1 17 be
       -0.04730626 -0.07245499 0.093365766 -0.14819981
000230 3c 34 c3 3d 2f b2 33 bd aa a4 29 bd ba d4 b6 bd
       0.09531447 -0.0438711 -0.0414168 -0.08927293
000240 ba 30 94 bb 7f 52 0e 3e 71 35 d7 bd 09 f7 15 be
       -0.00452241 0.13898657 -0.1050824 -0.14645018
000250 b4 35 99 3d 46 f0 f3 3d 92 63 2d be 69 47 9a bd
       0.07480946 0.11911063 -0.16932514 -0.07533152
000260 fd 2d 26 bd ac 1d ea 3c 65 18 84 3d f8 a5 a3 3c
       -0.0405712 0.028578602 0.064499654 0.019976601
000270 12 7f 08 3e b5 51 43 bc d7 83 87 bd 61 10 b7 3d
       0.13329723 -0.011921336 -0.06616943 0.08938671
000280 5b bc 99 3b 03 58 85 3e cc c1 9c 3d b2 5c 98 3e
       0.004691643 0.2604371 0.07654151 0.2975822
000290 d4 73 36 3e d6 5f b9 3b 42 92 35 bd ff 81 76 3d
       0.17817622 0.0056571765 -0.044328935 0.060182568
0002a0 c9 8c f6 bd 8e 7b d5 bd f6 51 95 3c e6 11 27 be
       -0.120385714 -0.10423957 0.018227559 -0.16315421
0002b0 24 a5 4f bd 6b 75 72 bd dc 1e 0b bc 1e bd d6 bc
       -0.0506946 -0.05919401 -0.008491244 -0.026213225
0002c0 16 a0 20 be f7 1c 85 bb cd dd 97 3d 86 63 96 bd
       -0.15686068 -0.004062291 0.07415352 -0.07343201
0002d0 e6 97 42 be f7 32 84 3d 1a 4e a9 3c c3 ff de 3d
       -0.19003257 0.06455033 0.020667125 0.108886264
0002e0 df df 96 bd a4 49 45 3c b8 39 00 3e f9 28 f2 3d
       -0.07366919 0.012041483 0.12522018 0.11824221
0002f0 c4 8c 05 3e 09 b9 2f be 80 23 14 3d ef f5 b4 bb
       0.13041979 -0.17160429 0.036166668 -0.0055224816
000300 f3 f4 5e bc f3 0d d7 3b 3f a0 0e 3d 14 cf 00 be
       -0.013608205 0.006562942 0.03482079 -0.12578994
000310 81 09 86 3c 39 11 ff bd 65 68 eb bc d1 81 f0 3d
       0.016361954 -0.12454457 -0.028736303 0.117435105
000320 5e 92 83 bd 24 c8 b8 3d 84 10 08 3d 41 c7 9a bc
       -0.06424402 0.09022549 0.033218876 -0.01889384
000330 b9 ac b4 3d 74 16 f1 bc 37 d0 8c 3c f3 bf 14 3e
       0.08822007 -0.029429652 0.017189128 0.14526348
000340 fb 7e af bc da b3 54 3d e3 e6 9a bd a9 f1 8a bd
       -0.021422854 0.051929332 -0.075635694 -0.06784374
000350 72 21 a4 3d b3 18 a0 bd 8e bc 36 3a c3 f6 d0 bc
       0.08014192 -0.07817211 0.0006970846 -0.02550829
000360 7f 46 a1 bd 87 38 6b 3c f6 3b c5 bd 81 7b 76 bd
       -0.07874774 0.014356739 -0.09630577 -0.060176376
000370 54 8f ed ba 89 51 b0 bc c4 2e 87 3e ce 5c 85 3d
       -0.001812438 -0.021523254 0.26402867 0.06511842
000380 2e cc 89 3d ae 30 20 3d 7f f6 bd bc 2f 5d ad bd
       0.06728397 0.039108925 -0.023188828 -0.08465039
000390 56 3e 01 3e 3f ba 1a 3e cd e2 a0 3c 3b 7c a0 bc
       0.12621436 0.1511011 0.019639397 -0.019590488
0003a0 07 71 5d be 75 e8 7d 3c 73 4a d3 3d e6 08 dc 3c
       -0.21625148 0.015497317 0.103169344 0.026859712
0003b0 d0 d1 68 be 3c 93 1a 3d 5b a0 3a 3e 03 c3 bc 3d
       -0.22736287 0.03773807 0.18225233 0.09216883
0003c0 51 60 20 bd 2e e5 db 3d 00 83 8b bd e9 3f 9d bd
       -0.039154354 0.10737072 -0.06812096 -0.076782055
0003d0 44 c9 09 be a9 a0 96 be 59 dc 06 3e b4 22 9f 3d
       -0.13455683 -0.2941945 0.13169993 0.07770291
0003e0 7f e9 b6 bb 3b 89 e4 bc 1d 48 d6 3d 4b 2c a9 bb
       -0.005582034 -0.027897468 0.10462973 -0.005162751
0003f0 52 05 90 3d 3a 50 4b bd 54 27 0f 3e f5 d8 32 bd
       0.07032265 -0.049637057 0.13979846 -0.043663938

onnx::Conv_163 f4 [16, 3, 3, 3]
000000 15 c9 be be 6a 8d e6 3f 2c b3 64 3f 40 7c db 3d
       -0.37262788 1.8011906 0.89335895 0.10717058
000010 15 00 22 40 9d 00 fc 3f 02 a5 2f c0 1c 3c 84 bf
       2.531255 1.9687687 -2.7444463 -1.0330844
000020 74 34 bd bf 89 94 8f 3f db 4a 20 40 af 49 40 bf
       -1.4781632 1.1217204 2.5045688 -0.7511243
000030 f4 ad 89 bf e9 ad 25 40 13 91 37 3f 35 17 da bf
       -1.0756211 2.5887396 0.7170574 -1.7038332
000040 b1 46 36 c0 7b 7f 9f be 2c 25 c0 3f e0 13 ba bf
       -2.8480647 -0.31151947 1.5011344 -1.4537315
000050 e4 e5 9b bf 99 b1 d3 3e b8 38 ae 3f 0b 22 44 3f
       -1.2179532 0.41346434 1.3611059 0.76614445
000060 7e dd 21 3f 4a e3 89 bf 59 b7 9c bf 3f 17 1a be
       0.63228595 -1.0772488 -1.2243453 -0.1504793
000070 c0 82 39 bc 8e 66 20 40 85 61 70 3f f9 48 b0 3d
       -0.011322677 2.5062594 0.93898803 0.086076684
000080 d9 92 0e 40 bf a4 62 c0 2f 47 1d c0 37 68 8a 3e
       2.2277129 -3.5413053 -2.4574697 0.27032635
000090 ff ba d0 3f e9 76 e5 bf 92 35 f2 3f 87 c0 0f bf
       1.6307067 -1.7926913 1.8922598 -0.5615315
0000a0 f5 0f dd 3e 00 4e 21 3f bb dc 58 c0 b0 50 03 3f
       0.43176237 0.63009644 -3.3884723 0.51294994
0000b0 f9 3c 12 3f a8 7e 00 40 bc 00 87 3f 27 f6 40 40
       0.57124287 2.0077305 1.0547099 3.015024
0000c0 dc d9 38 c0 18 44 e4 be 74 b6 f1 bd f4 d5 47 c0
       -2.888297 -0.445832 -0.11802378 -3.1224337
0000d0 dd 31 c0 bf 5d 64 26 40 5d bc 60 40 a0 44 45 40
       -1.5015217 2.5998757 3.5114968 3.0823135
0000e0 05 ac 90 3f 1f 39 30 c0 ce c9 c6 3f 92 1d 86 c0
       1.1302496 -2.7534864 1.5530336 -4.1911097
0000f0 34 e6 23 c0 6a 8b a1 bf 72 35 0f 3e d2 5d 9a 3e
       -2.5609255 -1.2620671 0.13985232 0.30149704
000100 cc 0a 97 40 de 2a 79 bf f4 ff 9e 3f 87 50 4f 40
       4.720068 -0.97331035 1.2421861 3.23929
000110 d9 49 0f c0 1e 8c 80 bf 10 d5 03 3f dc d0 b4 c0
       -2.2388823 -1.004276 0.5149698 -5.6504955
000120 7e c9 ae 3f 51 08 38 40 c3 a7 08 40 05 be d4 bf
       1.365524 2.8755076 2.1352394 -1.6620489
000130 54 c9 5c bf 3a dd b5 3e 11 4e d6 3f 49 ab e9 3f
       -0.862447 0.35520345 1.6742574 1.8255397
000140 91 99 c5 c0 bd ef 90 3f 0c 39 2b bf 3c ed 58 c0
       -6.174996 1.1323162 -0.6688392 -3.3894796
000150 09 4b c2 bf 4f a8 0d bf df 05 41 3e b3 4f 1a 40
       -1.5179149 -0.55334944 0.18849896 2.4111145
000160 13 67 5e bf 5b f2 45 40 ca c7 54 3f 09 da bf bf
       -0.8687603 3.0929172 0.83117354 -1.4988414
000170 d8 4d bf 3e 5e 30 b4 3f f5 e8 9b bf 93 bf 94 3f
       0.37364078 1.407726 -1.2180468 1.1620964
000180 6f 62 6f bf 75 18 be 3f 69 2c 9c bf f5 d1 2b bf
       -0.9350957 1.4851214 -1.2201053 -0.67117244
000190 f3 60 85 40 4d b7 74 40 01 67 00 c0 ce 26 2f 3f
       4.1680846 3.8236878 -2.0062869 0.68418586
0001a0 1a 2e f6 3f 7d e2 40 c0 0b 18 3f c0 64 c3 4e c0
       1.9232819 -3.0138237 -2.9858425 -3.2306757
0001b0 46 3d 9f 3e 4d a8 0b c0 9b bd 96 c0 d4 34 1b 40
       0.31101435 -2.1821473 -4.710645 2.4250994
0001c0 bd 7d 37 c0 77 cf c2 3f 15 34 35 40 ea f4 9c 3f
       -2.8670495 1.5219563 2.8313038 1.2262242
0001d0 52 98 4d 3f b4 f5 92 3f 8d 95 ed bf da 8a 10 c0
       0.8031055 1.1481233 -1.8561264 -2.2584748
0001e0 ca ac 85 bf 95 f8 f7 bf 31 c7 0d 40 dc af a5 3e
       -1.0443356 -1.9372736 2.2152827 0.32360733
0001f0 18 3d 30 40 8a 4c fb 3e 2c 9f 51 3f 0c e8 31 c0
       2.7537289 0.49081832 0.818835 -2.779788
000200 a3 f4 06 c0 72 fc d2 3f 96 8c fb bf 4a 45 73 3e
       -2.1086814 1.648329 -1.9652278 0.237569
000210 df 58 62 40 4f 5d 25 be 04 79 cb 3f b4 b8 04 bf
       3.5366743 -0.16148876 1.5896306 -0.51844335
000220 2f c4 03 c0 a2 43 2a 3f 1d c1 f1 bf f4 64 84 bf
       -2.058849 0.6650945 -1.8887058 -1.0343308
000230 cc dd e7 bf ac 7f d3 3e b8 28 48 3f bb 9c 5e be
       -1.8114562 0.41308343 0.7818713 -0.21739475
000240 9a a4 09 40 c0 c0 f3 3f e6 d4 ee 3f 4b 0e e7 bf
       2.1506715 1.9043198 1.8658721 -1.8051237
000250 15 b1 00 c0 ad d2 81 bf 4a d4 fc 3f 7d c9 a5 bf
       -2.0108082 -1.0142418 1.9752285 -1.2952114
000260 c4 73 ff 3f 7f 99 38 40 5f 90 bf bf b3 1a ce 3e
       1.9957204 2.8843687 -1.4965934 0.40254745
000270 97 d9 93 bf ed 62 00 40 4d da aa be 7c 04 a4 3f
       -1.1550778 2.006038 -0.33369675 1.2813869
000280 1a bd 9f 3e 12 9f 21 bf 8c 22 a6 3f 72 d5 7f 3f
       0.3119896 -0.6313335 1.2979293 0.99935067
000290 f2 63 0a c0 bb 50 4c 40 b4 21 d8 3f 50 6c 18 bf
       -2.1623502 3.1924274 1.6885285 -0.5954027
0002a0 d0 34 84 3f 9c 49 d2 bf 5d f1 7a c0 84 00 e0 3f
       1.0328617 -1.6428714 -3.9209816 1.7500157
0002b0 04 76 b1 bf 68 0a 82 be 95 ac 52 40 12 c9 3f c0
       -1.386414 -0.25398564 3.2917836 -2.9966474
0002c0 99 ba 53 c0 7b 8f b2 3f 9e e9 6d 3f f9 ed c6 3e
       -3.308264 1.3950037 0.92934597 0.38853434
0002d0 ac 4e 38 40 66 3f 32 bf f9 9e a4 bf c4 1c 28 40
       2.8798018 -0.6962799 -1.2861015 2.6267557
0002e0 0a 4d 30 3f ce 8c 85 c0 0e ee a4 3e df 88 ac 3f
       0.6886755 -4.173438 0.3221287 1.347927
0002f0 ce 1f 8f bf da b3 da bf 3b 54 cc be f0 b9 c7 bf
       -1.1181581 -1.7086136 -0.39908013 -1.5603619
000300 c1 24 57 3e 5b 7b 3b bf 1a 72 ed 3f 60 11 83 bf
       0.21010114 -0.732351 1.8550446 -1.0239677
000310 a7 59 a6 3f 59 b6 f9 3f f8 0d fd 3e 2e 47 22 c0
       1.299611 1.9508773 0.4942472 -2.5355945
000320 ce 5b a6 bf 65 8a 25 3e 3e b3 08 40 4c 28 80 be
       -1.2996767 0.16166075 2.13594 -0.25030744
000330 32 98 07 c0 2e 64 97 3f 3b 65 0d 40 9e 8b 30 c0
       -2.1186643 1.1827447 2.2093036 -2.7585216
000340 21 0d ef bf f9 68 bd bf d2 da 3e c0 99 a4 9b 3f
       -1.8675882 -1.479766 -2.9821057 1.2159606
000350 30 37 9f 3e 04 85 1a 40 7b e2 0a 3e b8 d2 94 40
       0.31096792 2.4143686 0.13562958 4.6507225
000360 e2 d3 df 3e 45 64 82 40 cd 5e ef bf 73 3b 47 3f
       0.4371634 4.07474 -1.8700806 0.7782509
000370 ad d9 d4 bf 0d c7 41 3e e5 da 81 bf af 24 1a c0
       -1.6628929 0.18923588 -1.0144926 -2.408489
000380 52 bf aa 3f 4d c7 19 40 48 fc 3c be cb e4 ff 3f
       1.3339636 2.4027894 -0.18455613 1.9991697
000390 ff 7c 1d c0 66 32 e4 bf fd db 6b be 2d c6 23 40
       -2.4607542 -1.782788 -0.23033138 2.5589707
0003a0 6a 36 a1 bf 09 c5 52 bf 92 c1 5e c0 d6 18 9e c0
       -1.2594731 -0.823319 -3.4805646 -4.9405317
0003b0 37 2e d7 bf 06 2d 36 bf d6 40 bb 3f 90 fb 99 be
       -1.6810979 -0.7116245 1.4629161 -0.3007474
0003c0 9b 2d 86 40 95 5a 0d 40 cb 4d e3 3f c8 76 3e be
       4.193067 2.2086537 1.7758116 -0.18599999
0003d0 f1 f7 da bf dd 9b 72 3f ec 2b 78 3e 9d 63 fa bf
       -1.7106916 0.9476908 0.24235505 -1.956165
0003e0 8a b0 26 3f 6b ad 1c 3f 99 23 c4 bf 60 f5 6c be
       0.6511313 0.61202115 -1.5323364 -0.23140478
0003f0 5e 06 c2 3e 4f 8e ef 3e 76 20 b5 bf 11 f7 45 3f
       0.37895483 0.4678826 -1.4150531 0.7733012

onnx::Conv_164 f4 [16]
000000 b9 50 cf bf 71 21 61 be c1 bd 4e be b6 d8 a6 3e
       -1.619651 -0.21985413 -0.20189573 0.32587212
000010 88 2d 06 ba 3f 49 e0 bf 9d 8c 81 be 9b e4 c8 be
       -0.0005118479 -1.7522353 -0.25302592 -0.39236912
000020 e2 db 43 3f 48 88 ea be 70 fe 5e be 2c e8 c8 be
       0.7650739 -0.458071 -0.21776748 -0.39239633
000030 80 52 fe 3e 3a 47 41 bf 5b 9f 6e 3d 40 ea 53 3d
       0.49672318 -0.7549931 0.058257442 0.05173707

onnx::Conv_166 f4 [16, 16, 3, 3]
000000 43 c4 b8 bc d3 e7 2d bd ce 21 64 bc 2e c3 c6 bc
       -0.022554522 -0.042457413 -0.013924075 -0.02426299
000010 3b a8 1f bd 56 24 34 bc 72 5c e3 3c 07 ba e1 bc
       -0.038978796 -0.010994991 0.027754042 -0.027554525
000020 c8 c7 f9 bc ca 43 af bb 49 59 f7 bc dc 0e 3a bd
       -0.030490771 -0.0053486573 -0.030193942 -0.045424327
000030 74 a5 b2 3c e4 5d 29 bd cf 01 8c bc 81 c1 ca 3d
       0.02180741 -0.041349307 -0.017090706 0.09900189
000040 b7 45 bf 3c 40 bb 55 bd a6 68 16 bd 36 4a 72 3d
       0.023348672 -0.05218053 -0.036720894 0.059152804
000050 20 54 29 3d d6 d3 5a 3c b3 49 05 bd 79 c2 23 bd
       0.041339993 0.01335617 -0.03254099 -0.039980385
000060 02 25 99 bd d3 53 bd bd 57 c7 26 3b 62 43 8a 3d
       -0.07477762 -0.09244504 0.0025448406 0.067511335
000070 90 9b 26 3d 1f 0c 35 3d 37 60 dd 3b 22 4b d4 bc
       0.0406757 0.044201013 0.0067558545 -0.025914732
000080 d7 c0 f5 bc bb 96 95 3c b0 13 89 3d 39 f0 0a 3d
       -0.02999918 0.01826035 0.06693208 0.0339205
000090 98 3d 6c 3c bd 3e dd 3c 02 f1 b5 3d 0d 94 c5 3a
       0.014418982 0.027007455 0.08883859 0.001507403
0000a0 c9 17 b4 bd 29 8b 46 bd 61 42 be 3d 55 81 27 bd
       -0.08793599 -0.048472557 0.092900045 -0.040894825
0000b0 a8 d8 43 bd 66 4c 8c bd e0 d1 c8 3c d5 28 4f 3b
       -0.04781404 -0.06850509 0.024514139 0.003161003
0000c0 1c ec b7 bd 59 75 ca bc 61 c7 04 3d db b7 5a bd
       -0.08980581 -0.024714159 0.032416705 -0.053397994
0000d0 64 75 b4 3c c2 a7 08 3e 07 f1 6e be 78 04 5c 3b
       0.022028632 0.13345245 -0.23334132 0.0033572
0000e0 84 df da 3c fc 1e 1e bd 76 37 7f 3d 40 36 c8 bd
       0.026717909 -0.038603768 0.06230875 -0.09775972
0000f0 c9 59 69 bd db e1 95 b9 3a c4 a4 bd 9a 13 ea bd
       -0.05697039 -0.0002858777 -0.0804524 -0.1142952
000100 fe 75 61 3c a7 7f 46 bd 8c 48 3c 3c 93 04 a7 3c
       0.013761042 -0.048461583 0.011491906 0.020387923
000110 7a 41 82 3d b6 e9 1b 3d 68 5d df 3c 24 93 6d 3d
       0.06360145 0.03806468 0.02726622 0.058001652
000120 86 5e 92 3d 7b 38 d8 3c b2 6b 5c bd f9 eb 16 ba
       0.07146935 0.02639412 -0.053813644 -0.00057572086
000130 e3 48 21 3d fd b5 9b bd ed 8a 5f 3c 1f 83 c7 bd
       0.03937615 -0.07603071 0.013643962 -0.09741806
000140 c0 ac 3f bd 4c 22 91 bc 53 2c 00 3d bf fe 32 ba
       -0.046795607 -0.01771655 0.03129227 -0.0006828121
000150 e3 65 08 be 0f 07 8d 3b 32 b4 90 3d 83 3a ae bc
       -0.13320117 0.00430382 0.070656195 -0.021268135
000160 69 ba 44 bc ea ad f4 3d cd 9f 0e be 4a e3 be bd
       -0.012007334 0.11947234 -0.13928147 -0.09320696
000170 c0 61 11 be 23 0b 1c bd 7e 28 d4 bc 1e 16 65 be
       -0.14197445 -0.03809656 -0.025898214 -0.22371718
000180 32 ce 75 3c ca a8 b7 bd 25 75 42 be 76 03 eb bc
       0.015002774 -0.08967741 -0.1899 -0.028688174
000190 44 75 f6 3c 88 98 91 3d 93 2f 1c 3d 5d 75 e6 bc
       0.030085213 0.07109171 0.038131308 -0.028132135
0001a0 78 99 a8 3d d1 79 c1 3d 12 a1 b2 bd 31 97 f0 bb
       0.08232397 0.09447063 -0.08722128 -0.007342242
0001b0 49 3f 0e 3e 14 65 2a 3d 9f 21 86 bd 2f b8 5c 3d
       0.13891329 0.0416003 -0.065493815 0.05388659
0001c0 e2 06 dc bc b2 5c b1 ba 6e ac 17 3c 64 81 a9 bc
       -0.02685875 -0.0013531654 0.009257419 -0.020691581
0001d0 e9 a8 6e bd db 2e 78 3c 39 60 58 bb 46 6d 12 3d
       -0.058266554 0.01514789 -0.0033016338 0.035748743
0001e0 67 1b 7a 3c d1 e3 1c bd 48 aa f5 bb a5 02 a9 bc
       0.015265322 -0.0383032 -0.0074971057 -0.020631144
0001f0 67 41 1d 3c 9a 3d 37 bd 5d e6 73 bd 20 58 d1 bc
       0.009598113 -0.044736482 -0.059545863 -0.025554717
000200 0a e4 14 3d ad 61 7e bd dd 98 2e bc 82 a1 97 3d
       0.036350287 -0.06210487 -0.010656563 0.07403852
000210 b8 ea 9d bd e6 a0 a2 bc ce d8 0a 3e 45 c2 61 3e
       -0.07710785 -0.019852113 0.13559267 0.22046764
000220 c3 92 a8 3d 8d 6a de bd 0e a5 30 3e 42 4b 5c 3d
       0.082311176 -0.10860167 0.17250463 0.05378271
000230 77 a8 ed bd d9 e7 94 3d c9 4d ac bd 59 bf 96 be
       -0.11604398 0.07270784 -0.08413274 -0.29442862
000240 70 07 ee 3c ff 70 bb bc 3a c8 16 3d 66 43 f1 3c
       0.02905628 -0.02288103 0.036812045 0.029451083
000250 fb 19 0f bb 95 e5 ee bc a9 ba 25 bd e9 af 55 bd
       -0.0021835554 -0.029162208 -0.040461216 -0.052169714
000260 89 c0 ba 3d 43 e6 44 3e c2 ee 7b 3d 6c cf 5c be
       0.091187544 0.19228463 0.061506994 -0.215635
000270 1c fa 42 3e 32 82 96 bd f0 dc 04 be a7 e0 88 3c
       0.19040722 -0.073490515 -0.12974906 0.016708685
000280 1f c5 a9 bd 82 da 66 3d cf d9 1f be e8 5d c5 3d
       -0.08289551 0.05636073 -0.15610431 0.09637052
000290 eb b1 1b bd 89 7e 3b be 62 d8 cc 3d 3a 46 48 bd
       -0.038011473 -0.18309988 0.10002209 -0.0488951
0002a0 7c 1b d6 bd 1a af f5 3d 52 e5 98 3c 65 5f 5d bc
       -0.10454461 0.119962886 0.018664036 -0.013511513
0002b0 3e 58 6b bd fa aa 82 3d 86 4d 1e bd be 1a d1 bc
       -0.0574572 0.063802674 -0.03864815 -0.025525447
0002c0 89 31 25 3d 1b fe ad 3c 29 df 6b 3d 9e e0 94 3d
       0.040330444 0.021239331 0.05758587 0.07269405
0002d0 80 9a 47 3e 7a 72 30 be 47 0e 1f bd 0a 4e 4d 3e
       0.19492531 -0.1723117 -0.038831975 0.20049301
0002e0 89 e1 0d be 7a 9a 62 3c 77 2b 34 3e 88 8b 75 be
       -0.13855566 0.013830775 0.17594706 -0.23979008
0002f0 0a 8c a6 3d de f8 66 bd 39 6e 34 bd 5d 4e ba 3c
       0.08132179 -0.056389682 -0.04405043 0.022742445
000300 2f 6f 9b bc 4b 57 1a bc 65 48 67 3d 66 1a ae bd
       -0.018973915 -0.009420226 0.056465525 -0.08501129
000310 72 64 25 bd 71 bb 44 bd 53 97 ca bc 74 e3 49 3d
       -0.040378995 -0.04803032 -0.02473036 0.04928918
000320 a8 76 47 3d 02 7f a5 be 00 d6 51 be 8f 13 5d 3e
       0.048697144 -0.32323462 -0.20491791 0.21589492
000330 98 03 95 bd 98 03 f5 bd 73 1a ab 3d 9f c6 55 be
       -0.07276076 -0.11963576 0.08354654 -0.20876549
000340 3a 5b 09 3d 55 df e9 3d 92 4b 56 bd eb 24 8a bd
       0.033534266 0.1141955 -0.052318163 -0.06745323
000350 a3 09 7b 39 0e 6e 18 be 52 d7 ae bd 5a 1d 25 bd
       0.00023940815 -0.14885733 -0.08537163 -0.040311195
000360 95 8c ae 3d 3c 03 d3 3b bb 63 f2 bd ae 0b 20 bc
       0.08522908 0.0064395946 -0.11835428 -0.00976841
000370 e5 22 90 3d 23 80 5f bd 57 42 bc bd e5 c3 fc 3d
       0.070379056 -0.05456556 -0.09192341 0.123420514
000380 69 6d ec bb b2 c1 5e bc 22 8b 83 bd 43 05 cd bc
       -0.007215191 -0.013595985 -0.06423022 -0.025026923
000390 43 d4 72 3d e9 e0 c3 3d 75 20 d1 3d f3 75 e4 3b
       0.05928446 0.095643826 0.10211269 0.0069720685
0003a0 14 61 de 3d 0c cd a0 39 87 9d 39 be ce f3 0b 3d
       0.1085836 0.0003067035 -0.18126498 0.034168057
0003b0 00 6e ab bd 8c fa 93 be ae 7b 65 3c 1f d1 3d bd
       -0.0837059 -0.2890209 0.014006538 -0.04634201
0003c0 2e ab f1 bd 61 44 7c 3e ae 2a 20 bd 5e ba 84 3c
       -0.11800228 0.2463546 -0.039103203 0.016202148
0003d0 09 1f ed bb bb 55 d9 bd a9 81 ca 3d 3e b5 03 3e
       -0.0072363657 -0.10612055 0.09888012 0.12862107
0003e0 50 17 37 bd 0d 23 ed bd 2a 90 98 3d 6d ac 2b 3d
       -0.044699967 -0.11578951 0.07449372 0.041912485
0003f0 1d 6f b3 bd 0f 17 88 3d 91 55 0e 3b 60 ed b2 3d
       -0.087614276 0.06645023 0.0021718482 0.08736682

onnx::Conv_167 f4 [16]
000000 00 11 7a bf 6a bf ce bf 86 ae 6b bf 7c 29 e1 bf
       -0.9768219 -1.6152165 -0.92063177 -1.7590785
000010 4c 69 69 3d d8 cb 5c bf 1b df 70 bf a7 1e a0 3e
       0.056985185 -0.8624854 -0.9409043 0.31273386
000020 c8 62 43 bf 6c 85 b0 be 30 57 5a bf 64 da c7 bc
       -0.76322603 -0.34476793 -0.8528929 -0.024396129
000030 00 10 0e 3c c8 04 92 bf 88 bb 83 be 9c dc 37 bf
       0.008670807 -1.1407709 -0.25729012 -0.71821

onnx::Conv_169 f4 [32, 16, 3, 3]
000000 9d fa 17 3c 3c 91 90 bd c7 62 2c bb 04 c8 aa bd
       0.009276059 -0.07058951 -0.0026303993 -0.08338931
000010 d2 3f 59 bd 6d 0d 40 bd e3 98 00 be 24 5e d2 bd
       -0.05303938 -0.046887804 -0.12558322 -0.10271862
000020 82 c3 8e bd a0 3d 06 3d 07 b8 c5 3d 71 a2 98 3c
       -0.06970884 0.032773614 0.09654241 0.018632146
000030 bd ee 53 bd 75 1b 64 bd b7 1b a2 bd 80 74 03 3d
       -0.05174135 -0.055690248 -0.079154424 0.032093525
000040 63 07 ef 3d c5 8d 52 3d 42 bf 39 3e 26 98 02 3e
       0.11671331 0.051404733 0.18139365 0.12753353
000050 62 3c 0f 3d 14 19 2f 3e e1 a2 21 3e d5 ec 86 3c
       0.034969695 0.1709941 0.1578479 0.016470352
000060 9a bc 05 3e e6 39 ca 3d 31 e7 45 3d 9a b0 88 3d
       0.13060227 0.098743245 0.048316184 0.06674309
000070 b9 fe b6 3c 84 8e f7 3b 89 e1 74 3d 24 f9 7d bc
       0.022338258 0.007554831 0.0597854 -0.015501294
000080 6b 98 08 bd 09 74 9e 3d ee c2 e7 3c 20 d9 77 3d
       -0.033348482 0.07736976 0.028291192 0.0605098
000090 69 07 17 3d 42 7f 51 3d ac 5d 0d bd 93 fc fe 3c
       0.0368723 0.051146753 -0.03451316 0.031126296
0000a0 ff 1c d0 bc b8 2b c6 bc 57 22 30 bc fa 0d 07 bd
       -0.025404451 -0.024190769 -0.010750375 -0.032972313
0000b0 00 95 1c bd f2 d3 e1 3a 14 7d 0c 3d a7 b7 32 3b
       -0.038228035 0.0017229302 0.03429897 0.002727011
0000c0 88 14 05 be 21 c6 78 bd 70 45 74 bc be 32 d6 bd
       -0.12996113 -0.060735825 -0.014909133 -0.10458897
0000d0 16 aa cc bd 4f bc 4b bc 76 14 7d 3d be 31 bc 3c
       -0.09993379 -0.012435033 0.06178709 0.022972938
0000e0 69 6a ec bd 0b 83 26 3d 91 fa 82 bc 84 dd a8 bd
       -0.115437336 0.040652316 -0.01598862 -0.08245376
0000f0 8b bc 26 3e 31 a9 2c 3e dd 37 3f bb 4a 28 e5 3c
       0.16282861 0.16861416 -0.0029177584 0.027973313
000100 bc 4e c1 bb 38 c6 72 3d cb 19 88 3b ec e2 93 bd
       -0.0058992784 0.059271067 0.0041534654 -0.07221016
000110 e9 99 13 bc e3 70 c9 3b 62 02 f6 bc 56 24 15 3d
       -0.009008863 0.0061474903 -0.030030433 0.036411606
000120 b9 2c 0e bd 20 d2 2d 3d f9 30 9d bb 88 e4 fb 3a
       -0.03471062 0.04243672 -0.0047970978 0.0019217888
000130 05 96 82 3d 3c 62 3b bc 5a 3a 6b bb 3e be c6 3c
       0.0637627 -0.011436995 -0.0035892935 0.024260636
000140 12 dc 58 3c 2e 42 68 3a cd af 33 bc 82 0f 53 bd
       0.013236063 0.0008859959 -0.010967207 -0.05152846
000150 3e 18 9f 3d 72 4f f4 3c 3b 91 92 bd cf e7 a6 3d
       0.07768296 0.029823039 -0.07156607 0.08149683
000160 a9 64 5d 3d fc d9 47 3c ff 3b ba bc c1 3e e2 3b
       0.054051075 0.012197968 -0.022733686 0.0069044535
000170 8b 40 a5 3d 5a e3 c0 bc a4 74 20 bc 3b d7 d2 3c
       0.08068951 -0.02354591 -0.009793434 0.025737396
000180 4a 35 2d bc 42 56 ef 3b a1 4e 5c 3d 9c 68 4d bd
       -0.010571787 0.007303984 0.053785924 -0.05014859
000190 ac d6 80 3d 6f 2c 31 3d bc fb 7f 3c 0c d1 f7 3d
       0.062909454 0.043255266 0.015623983 0.121004194
0001a0 42 72 e8 3d 47 95 5d bd e9 3a 7a bd d3 85 55 3d
       0.11349918 -0.05409744 -0.061091337 0.052129578
0001b0 2f a6 c5 bd 74 e0 26 bd 11 e6 87 bd 92 1c b8 bd
       -0.09650838 -0.0407414 -0.066356786 -0.08989824
0001c0 f4 dc ba bc 22 5e 24 3d e4 10 67 bd 81 08 54 bd
       -0.022810437 0.040128835 -0.056412593 -0.051765922
0001d0 0a aa d6 3c 74 d3 93 3c a0 a5 20 3c ef 38 03 bc
       0.026204128 0.018045165 0.009805113 -0.0080091795
0001e0 ec 2c 34 bd 27 ac 3f bb 64 62 52 3d 57 21 39 3b
       -0.043988153 -0.0029246898 0.051363364 0.0028248632
0001f0 65 05 53 3d dc 68 13 3d e3 18 29 3d 7d 27 76 3d
       0.051518817 0.035988674 0.0412835 0.060096253
000200 f1 62 a5 3c b2 b7 3e 3b 8e 53 4a bc d3 38 0c 3c
       0.02018878 0.002910119 -0.012349023 0.00855847
000210 57 8c 0d bc f4 21 82 3b b7 d2 5e bd 63 d6 bb bc
       -0.008639417 0.0039713327 -0.054400172 -0.022929376
000220 2a 41 52 bd 85 82 b9 bd 99 f4 82 3d 20 31 ce 3b
       -0.051331677 -0.09058098 0.063943096 0.0062924773
000230 db 17 b6 bc cc 92 51 bc 5f 0d 31 bd 47 f6 e0 bb
       -0.022228172 -0.012791347 -0.043225642 -0.006865296
000240 b1 d5 32 bd 09 89 68 3d ea c5 43 bd ce d4 e6 3d
       -0.043660823 0.056771312 -0.047796167 0.11271058
000250 dd f9 9a 3c 89 6a db bd 47 70 e1 bc 1d e6 75 3d
       0.018917972 -0.10713679 -0.027519358 0.060033906
000260 10 71 81 bd 03 5d 2e 3d b1 6b 32 3e c5 ff 71 3d
       -0.06320393 0.04256917 0.17423894 0.05908181
000270 cd 4d cc 3c 66 d8 51 3e ff 36 4b 3d 3a c6 8e bc
       0.024939442 0.20492706 0.049612995 -0.017428506
000280 2c 23 f0 3d f5 8b b8 3e ce 49 8d 3e b1 85 57 3d
       0.117254585 0.3604428 0.2759537 0.052617732
000290 db 4a 16 3e d2 29 63 be c6 ff 5f 3a e6 44 19 bd
       0.14676993 -0.22183922 0.0008544888 -0.037419222
0002a0 96 14 d3 3d e6 1a cd bd 41 54 e7 bd 53 dc b5 be
       0.10306661 -0.10014896 -0.11295367 -0.35519657
0002b0 8f f8 79 be 42 0c 23 3e 89 94 c1 be 51 b5 4d bd
       -0.24411224 0.15922645 -0.37808636 -0.050221745
0002c0 4a 03 92 3e 6f 86 a1 be 94 32 ed 3d df e7 af 3e
       0.28518134 -0.31547877 0.11581913 0.3435659
0002d0 af d3 f0 bd 01 ae 8c be ee 18 8e be c3 4b 59 3d
       -0.117591254 -0.27476504 -0.27753395 0.053050768
0002e0 bf f8 8f 3d 2c d8 0d 3e 5f bd 85 3e 62 c1 d3 bd
       0.070298664 0.13851994 0.2612104 -0.10339619
0002f0 96 5e fb 3d ab 96 cb be 4a 15 d7 bd 57 d6 d2 3d
       0.122739 -0.39763388 -0.105021074 0.10294788
000300 a3 d3 b8 bd 64 20 33 3e 1f 6f a0 3d 3e dd 1f be
       -0.090247415 0.17492825 0.07833695 -0.15611741
000310 55 05 90 bd 27 04 83 3d a2 8d 07 be a8 e4 97 3c
       -0.07032267 0.06397276 -0.13237622 0.018541649
000320 3b ef e5 bd ae ff a9 bd 07 67 2f bd ca 97 b6 3d
       -0.1122727 -0.0830072 -0.042822864 0.0891567
000330 10 11 b3 bb 5b 38 df 3d 47 dc 83 3e 45 21 08 be
       -0.0054646805 0.10899421 0.25753996 -0.13293941
000340 24 6e 1c 3d 77 b6 d9 3d e3 ce cb bc d5 31 ac 3c
       0.038190976 0.106305055 -0.024878925 0.021019856
000350 f0 68 c7 3d ea 7e d8 bd 9b 91 ee 3c d2 84 39 3e
       0.09736812 -0.10571082 0.029122164 0.18117073
000360 32 1b f6 3e 95 23 66 3c a8 14 2c bd 3d d2 31 3e
       0.48067623 0.014046569 -0.042011887 0.17365356
000370 10 fc 8e 3b 7a 2a a1 bd 01 79 1c 3e 6d f3 8d 3c
       0.0043635443 -0.0786943 0.15280534 0.017327989
000380 ad 3f 2d be ad c3 53 3d 9e 9a cc bc 84 b2 7f be
       -0.16918822 0.051700283 -0.024976071 -0.24970442
000390 42 23 ae bc 2d 74 06 3c 03 89 f1 bd da 61 5b 3c
       -0.021257047 0.008206409 -0.11793711 0.013390029
0003a0 3c e5 ff 3d 07 10 48 be 41 5a 4b 3e 54 8c e4 3d
       0.12494895 -0.19537364 0.19858648 0.11159578
0003b0 cb 1d ed 3d 80 7b 0c be 8a 2a c6 bc 63 02 80 bc
       0.11577948 -0.13718987 -0.024190206 -0.015626138
0003c0 d6 fa b2 bd 67 62 20 be 40 ab 82 bd b8 5a a5 bc
       -0.087392494 -0.15662538 -0.063803196 -0.02018486
0003d0 78 df 0b 3e 0d 3d b3 3d bd 1e 52 3c 9e ae bb bd
       0.13659465 0.08751879 0.012824711 -0.09164165
0003e0 0d 6e ca bc 1c 1f 95 3d b5 75 cc 3d 94 11 c9 bd
       -0.02471068 0.07281324 0.09983388 -0.09817806
0003f0 5f 1f 3e be d7 c8 05 3d d9 7b 80 bd 2f 2c dc bd
       -0.18566655 0.03266224 -0.06273622 -0.10750615

onnx::Conv_170 f4 [32]
000000 2e 31 47 3f c7 cb 3f bf 72 4a c5 bf 67 af 8d bf
       0.7780942 -0.74920315 -1.5413344 -1.1069154
000010 30 bf a5 bd ba 04 ec bf 92 90 1b c0 aa ba 02 c0
       -0.08093107 -1.8438942 -2.4306989 -2.042643
000020 64 58 c4 bf ca 23 56 3f 64 1c 28 3f 9b 28 2b c0
       -1.5339475 0.8364836 0.6566832 -2.6743534
000030 b4 d0 97 bf 9c 3d 93 bf 04 8e 6a bf 68 13 c5 bf
       -1.1860566 -1.1503177 -0.9162295 -1.5396547
000040 11 f0 f1 bd 94 ee d1 be a0 38 60 bd 37 ec a8 bf
       -0.11813367 -0.41002333 -0.0547415 -1.3197087
000050 bc 3c 91 3c 00 46 16 bc 1c 40 19 c0 50 47 34 be
       0.017729156 -0.009171963 -2.394538 -0.17605329
000060 81 c1 0e c0 ae 1d 89 bf a4 17 f2 bf 16 61 ee bf
       -2.2305605 -1.0712183 -1.8913465 -1.8623378
000070 05 a4 96 bf 6e ea bb bf 2c 2a 5a be 44 a5 f9 bf
       -1.1768805 -1.4680917 -0.2130515 -1.950356
